Models/CNN-MNISTFashion.pt (torch_old, 169483 bytes, 8 tensors)

conv1.weight f4 [6, 1, 3, 3]
0.08421403 0.14654495 -0.552551 0.6210893 0.009651779 -0.5783229 0.5220353 0.025814572
-0.15537524 0.23434389 0.17772765 -0.46486434 -0.052663643 0.4244814 0.17229877 -0.33995163
0.43500102 0.17773534 0.052098602 -0.098748066 0.22304454 -0.10695467 -0.22457688 -0.08646965
0.019540949 0.009105568 -0.25964737 -3.875097 -0.7997739 0.1753702 -0.79638624 -0.13462862
0.11219494 0.12646642 0.18344939 -0.0134391785 0.016342783 0.0672083 0.11634099 -0.003055965
0.12796979 0.32818913 0.24177805 0.34036744 -0.11839119 0.453253 0.21096869 0.17621066
0.44819608 -0.1497196 -0.046944562 -0.15349603 -0.37505898 -0.47061035
00000000: 6878 ac3d e10f 163e fb73 0dbf b5ff 1e3f
00000010: 7f22 1e3c f80c 14bf 1ba4 053f 1579 d33c
00000020: b01a 1fbe d8f7 6f3e 3dfe 353e b302 eebe
00000030: d5b5 57bd a055 d93e 176f 303e 240e aebe
00000040: 74b8 de3e 4100 363e 5865 553d 6d3c cabd
00000050: ca65 643e 0d0b dbbd 7bf7 65be 0017 b1bd
00000060: 5714 a03c 852f 153c 80f0 84be 9701 78c0
00000070: fbbd 4cbf 3f94 333e f8df 4bbf 16dc 09be
00000080: 76c6 e53d 6a80 013e 28da 3b3e 0030 5cbc
00000090: 4de1 853c 81a4 893d 2f44 ee3d 9646 48bb
000000a0: 830a 033e 6808 a83e aa94 773e a444 ae3e
000000b0: 1577 f2bd c710 e83e 2d08 583e 9170 343e
000000c0: f579 e53e 1850 19be f148 40bd 102e 1dbe
000000d0: bb07 c0be d7f3 f0be

conv1.bias f4 [6]
-0.008221463 -0.20579109 -0.28937703 0.4257886 -0.010539108 -0.003745746
00000000: 51b3 06bc e6ba 52be 3a29 94be f700 da3e
00000010: 39ac 2cbc 317b 75bb

conv2.weight f4 [16, 6, 3, 3]
0.036053624 -0.038134027 0.03668567 -0.11336144 -0.14126377 -0.036761854 -0.010866006 -0.16664003
0.07642768 -0.06541699 0.08453384 -0.07971378 -0.054624636 0.06478969 -0.03394459 0.085993
0.02978102 0.06924916 -0.094670095 0.10966112 0.10056445 -0.10937178 -0.046551727 0.083833426
0.023370475 -0.04033833 0.12597072 -0.13491552 0.044950087 0.016513448 -0.012452485 -0.11759558
-0.11528808 0.032411564 -0.1152282 -0.05327804 -0.035418548 0.01687407 0.041398846 -0.18433753
-0.119217396 -0.064182796 -0.04479678 -0.016033433 -0.15768573 0.037036266 -0.1011065 -0.09780293
-0.11332741 0.007779154 0.03977073 -0.009357942 -0.17827141 -0.0010381918 -0.124514215 -0.33741376
0.0027412004 -0.16826685 -0.10407786 0.1521291 -0.20118162 0.0649158 0.108660005 -0.2886318
-0.37371886 -0.10479509 0.043785498 -0.25945455 -0.5807945 0.021767806 -0.5086683 -0.4632596
-0.1230306 0.06460014 -0.10849146 -0.05441988 -0.13574097 -0.0074891364 -0.064720996 0.09889786
0.13572608 0.3927132 -0.05800231 -0.66778606 0.16322203 -0.5114346 -0.11743318 0.06945593
-0.3327828 0.5638073 0.17239119 0.13782604 0.34708256 0.25020587 0.020866891 -0.048244752
0.17722666 -0.23320086 -0.44988546 0.06425897 0.39405277 0.3800345 0.12559082 0.16723809
0.35223976 0.03862248 0.0892431 -0.33030897 -0.4347427 -0.84616804 -0.95939946 -0.050639983
-0.6056126 -0.8395356 0.057175223 -0.25816944 -0.41173053 -0.17588928 -0.47427252 -0.53416
0.014695695 -0.14502427 -0.49385542 0.3071374 0.18417792 -0.19945982 0.07470634 -0.063600615
-0.022167757 0.06719844 0.031137971 0.039431997 0.0016919802 0.050887216 -0.09967688 -0.05179565
0.09809528 -0.020135874 0.44418657 -0.41148937 0.026974091 -0.18099725 -0.40331495 -0.44304398
0.1084819 -0.09076422 -0.13381894 0.272065 -0.0836177 -0.017645624 0.4221141 0.33730653
0.17443427 0.0791168 0.09777657 -0.033875868 0.12546287 0.0054142023 -0.13675168 -0.019751899
0.24744484 0.04207045 0.56798565 0.62374294 0.034170553 0.08698587 -0.17859076 -0.07088767
0.08438467 -0.10746837 0.14036451 0.5923081 0.35156423 -0.012908443 -0.10862664 0.17871732
0.2218635 -0.3090314 -0.49376094 -0.2036118 -0.07159162 0.09490716 -0.027672134 -0.05116245
-0.027899701 0.07776663 -0.038768757 -0.056438286 0.12831616 -0.48855346 -0.32712504 0.026656806
0.39905816 0.3084489 -0.5846617 0.802941 0.53521234 -0.26397848 0.124540195 0.11961652
0.009545905 -0.2926464 -0.1294319 0.20497788 -0.31259966 -0.15557522 0.15715018 0.3023961
0.20147523 -0.3613642 -0.09877841 0.009928951 0.09034154 -0.59376884 -0.16787404 0.17636476
0.4950305 0.37927914 -0.057198856 0.31402338 0.038017515 -0.18958835 -0.04929255 0.28964826
0.090062626 0.21830212 0.1791956 -0.057983287 0.37908107 -0.09032763 0.05916281 0.19838826
0.28635356 0.30764595 -0.034146216 0.026915215 -0.09204191 0.12762707 -0.045516126 -0.12356578
-0.11610766 0.032602638 0.06803108 -0.1835327 0.49237746 0.68984354 -0.27530283 0.1611385
0.40411702 -0.25941554 -0.30660376 0.27856117 -0.19777027 -0.2606289 -0.34924006 0.1520196
00000000: f7ac 133d 6d32 1cbd b743 163d 0b2a e8bd
00000010: 73a7 10be 9993 16bd 5507 32bc afa3 2abe
00000020: 1e86 9c3d 58f9 85bd 1420 ad3d fa40 a3bd
00000030: 15be 5fbd 75b0 843d 7b09 0bbd 191d b03d
00000040: 53f7 f33c 81d2 8d3d 65e2 c1bd 0296 e03d
00000050: bcf4 cd3d 50fe dfbd 06ad 3ebd dcb0 ab3d
00000060: 7073 bf3c ce39 25bd 78fe 003e 4b27 0abe
00000070: 951d 383d 3647 873c 8205 4cbc f4d5 f0bd
00000080: 281c ecbd fdc1 043d c3fc ebbd 133a 5abd
00000090: 0a13 11bd 7d3b 8a3c d691 293d fac2 3cbe
000000a0: 4028 f4bd 4572 83bd d47c 37bd 8c58 83bc
000000b0: 5e78 21be 57b3 173d ed10 cfbd e74c c8bd
000000c0: 3318 e8bd 46e8 fe3b a2e6 223d 0e52 19bc
000000d0: c88c 36be f013 88ba 4f01 ffbd 7fc1 acbe
000000e0: b6a5 333b 254e 2cbe c626 d5bd bbc7 1b3e
000000f0: 8e02 4ebe 93f2 843d 2389 de3d 8cc7 93be
00000100: 1458 bfbe cf9e d6bd 6c58 333d 3ad7 84be
00000110: f3ae 14bf 6652 b23c 1638 02bf 5d30 edbe
00000120: 78f7 fbbd 144d 843d c530 debd 61e7 5ebd
00000130: aeff 0abe 6e67 f5bb 718c 84bd f68a ca3d
00000140: c7fb 0a3e b411 c93e d593 6dbd 07f4 2abf
00000150: ad23 273e 61ed 02bf cf80 f0bd e93e 8e3d
00000160: 8262 aabe ad55 103f 5187 303e 4522 0d3e
00000170: ceb4 b13e fc1a 803e 0bf1 aa3c 4a9c 45bd
00000180: e87a 353e 35cc 6ebe 6357 e6be 359a 833d
00000190: 49c1 c93e e293 c23e e19a 003e 7640 2b3e
000001a0: c558 b43e 9b32 1e3d 16c5 b63d 421e a9be
000001b0: 9896 debe 789e 58bf 349b 75bf df6b 4fbd
000001c0: 6d09 1bbf ceeb 56bf 9130 6a3d c92e 84be
000001d0: 58ce d2be 521c 34be d9d3 f2be b6be 08bf
000001e0: 36c6 703c 3e81 14be 9eda fcbe 1d41 9d3e
000001f0: 2399 3c3e 323f 4cbe a3ff 983d 0a41 82bd
00000200: 2899 b5bc 569f 893d 0f15 ff3c 7283 213d
00000210: 6fc5 dd3a 1d6f 503d 6423 ccbd ad27 54bd
00000220: 2ee6 c83d fdf3 a4bc 6c6c e33e bcae d2be
00000230: c5f8 dc3c 5857 39be 4c7f cebe a9d6 e2be
00000240: c22b de3d 97e2 b9bd d507 09be 1b4c 8b3e
00000250: c23f abbd 8e8d 90bc 571f d83e 71b3 ac3e
00000260: e69e 323e fd07 a23d 153f c83d 6cc1 0abd
00000270: 5779 003e 9f69 b13b a208 0cbe bcce a1bc
00000280: 2e62 7d3e 1052 2c3d 8267 113f 9ead 1f3f
00000290: 6cf6 0b3d a625 b23d 7fe0 36be 8e2d 91bd
000002a0: dfd1 ac3d 6018 dcbd b7bb 0f3e 81a1 173f
000002b0: 3a00 b43e ef7d 53bc a577 debd ac01 373e
000002c0: 2f30 633e 5d39 9ebe 3cce fcbe 9d7f 50be
000002d0: a19e 92bd af5e c23d acb0 e2bc b88f 51bd
000002e0: ea8d e4bc 1c44 9f3d fdcb 1ebd d52b 67bd
000002f0: 5065 033e ae23 fabe ef7c a7be 605f da3c
00000300: 5a51 cc3e 04ed 9d3e 64ac 15bf 8b8d 4d3f
00000310: ad03 093f 3028 87be ee0e ff3d 82f9 f43d
00000320: 6d66 1c3c c0d5 95be cc89 04be b9e5 513e
00000330: 100d a0be 1c4f 1fbe faeb 203e a9d3 9a3e
00000340: 864f 4e3e ba04 b9be 564c cabd 0aad 223c
00000350: fc04 b93d 3c01 18bf 2ce7 2bbe f798 343e
00000360: a374 fd3e e030 c23e 5949 6abd acc7 a03e
00000370: 41b8 1b3d 7323 42be fce6 49bd c74c 943e
00000380: c172 b83d 978a 5f3e 0d7f 373e e27f 6dbd
00000390: ea16 c23e b1fd b8bd b454 723d 4b26 4b3e
000003a0: ef9c 923e c583 9d3e e7dc 0bbd 4c7d dc3c
000003b0: 7880 bcbd acb0 023e 1e6f 3abd 0e10 fdbd
000003c0: dac9 edbd 588a 053d e153 8b3d ffef 3bbe
000003d0: e618 fc3e 9699 303f 7ef4 8cbe 7e01 253e
000003e0: 6de8 ce3e 1dd2 84be 2bfb 9cbe 929f 8e3e
000003f0: 4a84 4abe 2771 85be 98cf b2be 07ab 1b3e

conv2.bias f4 [16]
-0.073032044 0.16724628 0.30215165 -0.22062758 -0.23494753 0.038797446 0.25820103 0.041778684
-0.13783139 0.1335053 0.043284606 -0.13573606 -0.11815299 -0.20639901 0.12640546 0.068256006
00000000: d391 95bd 9c42 2b3e 9fb3 9a3e 32ec 61be
00000010: 1696 70be 12ea 1e3d ed32 843e 2020 2b3d
00000020: ac23 0dbe 9db5 083e 334b 313d 65fe 0abe
00000030: 32fa f1bd 435a 53be 6f70 013e cec9 8b3d

fc1.weight f4 [100, 400]
0.02731983 -0.047520336 -0.019096732 -0.027744418 -0.0081192255 0.04612341 -0.047612995 0.023569588
-0.03357467 -0.04949501 0.042129528 -0.021459525 -0.047634285 -0.042810436 -0.04361863 -0.03397777
0.020130258 0.04298315 0.04905313 -0.03184955 -0.026410097 -0.023112625 0.03958461 0.02253363
0.021071088 0.020184886 -0.06880901 -0.0716166 0.017796056 0.02988547 -0.0316982 -0.025716405
-0.004063429 -0.005261057 -0.035712775 -0.057157163 0.0072809025 -0.021742284 -0.01610055 -0.06756666
-0.022770308 -0.0449144 -0.014437931 -0.022191063 -0.05322364 -0.016347572 -0.08432003 -0.045705214
-0.039825413 -0.06254518 -0.017192822 -0.013830327 -0.028596057 -0.0512549 -0.0716237 -0.012128561
0.01084187 -0.05274157 -0.059332937 -0.024749648 -0.061247345 -0.02073765 -0.048313294 -0.008085593
0.007145401 -0.0033660845 -0.05042582 -0.06459913 -0.025223443 -0.008518182 -0.0019905574 0.014474645
0.014693943 0.017022023 0.037878353 -0.077699564 -0.07888603 -0.02782415 -0.062289704 -0.015411433
-0.023390824 0.004030638 -0.039981425 -0.05606429 -0.062327553 -0.053945057 -0.043061003 -0.06981047
0.012509106 -0.00397742 -0.06880692 -0.007455489 -0.07390094 -0.024820963 -0.08621955 -0.009531106
-0.07131075 -0.043272417 -0.084234335 -0.041121036 -0.039576437 -0.0785323 -0.033402123 0.015074087
-0.06419308 -0.009120335 -0.00074000086 -0.026718274 0.016797574 -0.015513819 0.0017428898 -0.068329565
-0.03901627 -0.04315562 -0.03361414 -0.06478231 -0.022707589 -0.053515103 -0.007996243 -0.08547163
-0.015010582 -0.08242433 -0.07594447 -0.06333563 -0.046175517 -0.08149671 0.016871706 -0.026923496
-0.013913521 -0.054951 -0.04150736 -0.05050662 -0.06229589 -0.061965715 -0.000950457 -0.0682849
-0.044298004 -0.0380777 0.012906328 -0.043342266 0.01475105 0.009378782 -0.00972922 -0.0025377953
-0.025202952 0.0026689111 -0.078964524 -0.037326608 -0.0700413 0.0053170584 -0.097313195 -0.06763019
-0.020542223 -0.0057877526 -0.0064791976 -0.07930127 -0.091367215 -0.049732313 -0.0899427 -0.0025432424
-0.076939926 -0.029922673 -0.045179393 -0.08456227 -0.07181568 -0.076186866 -0.015636135 -0.005012719
-0.0001401186 -0.051216997 -0.017602595 -0.031745568 -0.033871885 -0.08634901 -0.07542549 -0.055219773
0.011626383 -0.03143219 -0.06915553 0.04219247 -0.07355882 -0.024298117 -0.0017524569 -0.082327455
0.011832069 -0.06438007 0.010257832 -0.038509168 -0.049099423 -0.008189372 0.013964525 -0.08483251
0.035090793 -0.036025777 -0.03027082 -0.034866005 -0.018914629 -0.054483313 -0.051672306 -0.018128268
0.031032268 -0.032794923 -0.028951067 -0.020145137 -0.045072 -0.018857105 0.016984928 0.02738205
0.00926739 0.00139153 -0.017419476 -0.025920272 -0.011120349 0.01970395 -0.030638326 0.009645484
-0.038000923 -0.033822715 0.024832796 0.0073337853 0.010070283 -0.04526648 -0.0056540594 0.024181645
0.015714232 -0.037882216 -0.005314507 -0.04800833 -0.036009733 -0.033077467 0.01037699 -0.0737655
-0.060095377 -0.0032730617 -0.027066845 -0.033396814 -0.03520489 -0.04951551 -0.017324852 -0.07009518
-0.067559555 -0.039961014 -0.082539186 -0.061076567 -0.07716671 -0.04289008 -0.054084636 -0.038131673
0.0039688586 -0.015625421 -0.08017559 -0.05316809 -0.05846351 -0.03731571 -0.017920146 -0.019671138
00000000: d6cd df3c afa4 42bd c070 9cbc 4348 e3bc
00000010: 8006 05bc e7eb 3c3d d805 43bd 0215 c13c
00000020: 9885 09bd 48bb 4abd 0390 2c3d e3cb afbc
00000030: 2b1c 43bd ff59 2fbd 73a9 32bd 462c 0bbd
00000040: 36e8 a43c 190f 303d efeb 483d ac74 02bd
00000050: fd59 d8bc b056 bdbc 7923 223d 7298 b83c
00000060: 469d ac3c c65a a53c bdeb 8cbd b9ab 92bd
00000070: 09c9 913c 60d2 f43c f9d5 01bd 36ab d2bc
00000080: 8326 85bb f264 acbb 8f47 12bd a11d 6abd
00000090: a394 ee3b e01c b2bc 4de5 83bc 6460 8abd
000000a0: cc88 babc 29f8 37bd 128d 6cbc 08ca b5bc
000000b0: 0801 5abd 58eb 85bc fbaf acbd 6435 3bbd
000000c0: f91f 23bd b017 80bd f6d7 8cbc 9998 62bc
000000d0: 4742 eabc a8f0 51bd 72af 92bd dfb6 46bc
000000e0: 19a2 313c 8b07 58bd 1807 73bd c6bf cabc
000000f0: 7fde 7abd 01e2 a9bc 29e4 45bd 6f79 04bc
00000100: f823 ea3b 8799 5cbb 4e8b 4ebd 8c4c 84bd
00000110: 65a1 cebc d88f 0bbc 0374 02bb 1027 6d3c
00000120: ddbe 703c c571 8b3c 5526 1b3d f320 9fbd
00000130: 008f a1bd 79ef e3bc 7d23 7fbd 3c80 7cbc
00000140: 1d9e bfbc 7113 843b 90c3 23bd aba3 65bd
00000150: 2d4b 7fbd 7ef5 5cbd bc60 30bd cbf8 8ebd
00000160: fef2 4c3c 0455 82bb a4ea 8cbd 2d4d f4bb
00000170: 6059 97bd 5555 cbbc e093 b0bd 5b28 1cbc
00000180: 5f0b 92bd 6b3e 31bd 0d83 acbd 886e 28bd
00000190: e71a 22bd 8bd5 a0bd aad0 08bd 4ef9 763c
000001a0: a977 83bd 756d 15bc 9efc 41ba 48e0 dabc
000001b0: 119b 893c ac2d 7ebc ad71 e43a 5ff0 8bbd
000001c0: 86cf 1fbd f3c3 30bd fbae 09bd 96ac 84bd
000001d0: 4405 babc a732 5bbd ad02 03bc c00b afbd
000001e0: f2ee 75bc 16ce a8bd c688 9bbd 1cb6 81bd
000001f0: 8a22 3dbd bfe7 a6bd 8836 8a3c aa8e dcbc
00000200: 89f5 63bc 4d14 61bd 9f03 2abd 08e0 4ebd
00000210: fa29 7fbd c3cf 7dbd 1728 79ba f4d8 8bbd
00000220: d371 35bd 5df7 1bbd 1075 533c a987 31bd
00000230: 63ae 713c 76a9 193c 4e67 1fbc 2451 26bb
00000240: 6c76 cebc e6e8 2e3b 27b8 a1bd c9e3 18bd
00000250: d071 8fbd b83a ae3b 244c c7bd b281 8abd
00000260: 2a48 a8bc 30a7 bdbb 734f d4bb b468 a2bd
00000270: bc1e bbbd 1cb4 4bbd e133 b8bd 87ac 26bb
00000280: ae92 9dbd 6520 f5bc 070e 39bd fc2e adbd
00000290: 1914 93bd dc07 9cbd 5a17 80bc bc41 a4bb
000002a0: cdec 12b9 eac8 51bd 5133 90bc a407 02bd
000002b0: 3fbd 0abd c0d7 b0bd ae78 9abd 212e 62bd
000002c0: 967c 3e3c 0abf 00bd 6aa1 8dbd 03d2 2c3d
000002d0: 02a6 96bd d80c c7bc b2b2 e5ba 4c9b a8bd
000002e0: 4bdb 413c b3d9 83bd 7710 283c cabb 1dbd
000002f0: 7a1c 49bd b72c 06bc 77cb 643c abbc adbd
00000300: 5dbb 0f3d c48f 13bd 83fa f7bc a8cf 0ebd
00000310: daf2 9abc e529 5fbd 57a6 53bd bc81 94bc
00000320: 6237 fe3c f853 06bd ca2a edbc 6a07 a5bc
00000330: 6b9d 38bd 377a 9abc fa23 8b3c 5250 e03c
00000340: 40d6 173c 0064 b63a 4ab3 8ebc c056 d4bc
00000350: 2032 36bc 2e6a a13c 3afd fabc 1808 1e3c
00000360: dba6 1bbd b089 0abd 266e cb3c 4050 f03b
00000370: d4fd 243c 5869 39bd b045 b9bb 9618 c63c
00000380: 22bb 803c 622a 1bbd 5125 aebb 62a4 44bd
00000390: f17e 13bd 3d7c 07bd 4004 2a3c 5e12 97bd
000003a0: 9226 76bd dd80 56bb 4abb ddbc 19cb 08bd
000003b0: 0133 10bd c7d0 4abd d9ec 8dbc 108e 8fbd
000003c0: aa5c 8abd 29ae 23bd 4e0a a9bd 6c2b 7abd
000003d0: 9409 9ebd 82ad 2fbd da87 5dbd f52f 1cbd
000003e0: 330d 823b e200 80bc 1a33 a4bd c8c6 59bd
000003f0: 6f77 6fbd 5cd8 18bd 45cd 92bc 5e25 a1bc

fc1.bias f4 [100]
-0.017929656 0.19353673 -0.03502567 -0.067526676 -0.03239774 0.0919636 0.07884698 0.07875631
-0.066809185 -0.01611611 -0.07477221 0.06189062 0.010237408 0.10680671 -0.0006740733 0.0660487
0.17280523 0.031025996 -0.06259592 -0.040731497 -0.023177747 0.007322834 -0.015897376 0.031350613
-0.026298963 -0.023286926 -0.0045484896 0.14380178 0.0071459645 -0.012382235 0.12002791 -0.045337487
0.00050456997 -0.08843409 0.026336206 0.28003347 0.014555463 -0.016847022 -0.0009971027 0.027388768
0.020497117 0.18730067 0.18237428 -0.07861623 -0.025876535 -0.048932876 -0.074352 0.060941957
-0.0146406535 0.18317004 -0.017031927 -0.050207816 -0.046216086 -0.017447764 -0.068888925 -0.01849038
0.012826607 0.0639175 -0.05214712 -0.06492784 -0.17913638 -0.038373128 0.093855284 0.11367822
-0.060062166 -0.058435086 -0.008892329 0.011911848 0.18352295 -0.06304021 0.08626302 0.04519511
-0.079150744 -0.05544904 -0.03192764 0.016797042 -0.019384708 0.1372914 -0.09219962 -0.068019286
-0.13526075 -0.012166849 -0.0038070732 0.021397136 -0.020088106 0.14123236 -0.03688898 0.11768907
-0.045792237 0.22243729 -0.009164136 -0.18834525 0.18679813 -0.05659153 -0.115331076 0.045301963
0.07751489 -0.049921643 0.024980724 0.04764862
00000000: 37e1 92bc 7e2e 463e 1477 0fbd 6d4b 8abd
00000010: 7eb3 04bd 6957 bc3d 877a a13d fd4a a13d
00000020: 41d3 88bd ef05 84bc 2c22 99bd 0581 7d3d
00000030: cdba 273c 7abd da3d 4bb4 30ba 8a44 873d
00000040: dbf3 303e 3b2a fe3c 4a32 80bd 12d6 26bd
00000050: 42df bdbc 62f4 ef3b 373b 82bc 8069 003d
00000060: ec70 d7bc 39c4 bebc 7f0b 95bb c640 133e
00000070: b228 ea3b dcde 4abc 31d1 f53d cdb3 39bd
00000080: 1e45 043a ef1c b5bd 07bf d73c 8c60 8f3e
00000090: 097a 6e3c c402 8abc 37b1 82ba 695e e03c
000000a0: 92e9 a73c bfcb 3f3e 53c0 3a3e 8c01 a1bd
000000b0: 07fb d3bc d76d 48bd dd45 98bd 469e 793d
000000c0: 5adf 6fbc ed90 3b3e 8a86 8bbc b6a6 4dbd
000000d0: 144d 3dbd 9dee 8ebc a315 8dbd 2379 97bc
000000e0: b026 523c 2ee7 823d 3898 55bd e3f8 84bd
000000f0: 876f 37be 242d 1dbd 3337 c03d 20d0 e83d
00000100: bf03 76bd a159 6fbd 22b1 11bc e929 433c
00000110: 71ed 3b3e 3a1b 81bd abaa b03d 821e 393d
00000120: c919 a2bd 881e 63bd 8fc6 02bd f399 893c
00000130: aecc 9ebc 1e96 0c3e 28d3 bcbd b24d 8bbd
00000140: cb81 0abe 7757 47bc 1780 79bb 0c49 af3c
00000150: d08f a4bc 379f 103e e618 17bd f806 f13d
00000160: a490 3bbd 9ac6 633e 2c25 16bc 94dd 40be
00000170: 0248 3f3e 85cc 67bd b332 ecbd 8d8e 393d
00000180: 20c0 9e3d a37a 4cbd 60a4 cc3c 332b 433d

fc2.weight f4 [10, 100]
-0.10347681 -0.50242597 -0.41634318 -0.011813056 0.008266806 -0.17914082 0.12900582 0.34599534
0.0736596 0.01974259 0.025333025 0.0027998085 0.00063795346 -0.06411465 0.045948856 0.20878953
0.05400685 0.08828984 -0.018876923 -0.3871022 0.03714325 -0.16764364 0.12884954 -0.11324006
0.017111327 -0.26373005 0.034312423 0.03997644 -0.41968355 0.001838826 0.14956893 -0.15234452
-0.31393042 -0.053012695 0.2632592 -0.18031818 0.025393466 0.10858357 -0.030118931 -0.12701188
-0.009923568 0.099435925 0.08451239 -0.10971788 -0.10196465 0.06657748 -0.045895092 -0.3101465
-0.014208375 -0.16567501 -0.014617704 -0.053415082 0.075066574 -0.28265566 0.16392663 -0.05169748
0.06832591 -0.194516 0.06719551 -0.00417595 0.15500514 0.07932667 -0.13244605 0.1582139
0.057197243 0.09103151 -0.0012042318 -0.07861123 0.2951452 -0.041709468 0.17858388 0.23220222
-0.025278019 -0.041458346 -0.026622407 0.08376406 0.054263193 -0.10721662 -0.033922497 -0.37841362
-0.3074637 0.041947503 -0.011481128 -0.010916403 -0.0028021387 -0.06092406 0.04094163 -0.34353188
-0.07097469 -0.13832775 -0.0024806282 0.14284824 0.076810315 -0.010257986 -0.06711351 0.13619827
-0.2988705 -0.010444403 -0.38052887 0.0029860141 -0.1253544 -0.28073233 -0.060286053 0.040932104
-0.08186299 -0.34697092 -0.42405254 -0.06986243 -0.12264208 0.02537211 0.04212962 0.0481369
-0.046887174 -0.89160234 -0.09875645 -0.1523409 -0.6020726 -0.068002 -0.06531774 -0.50371695
0.002397499 0.12572682 -0.5326709 -0.13509728 -0.0448619 0.3273775 -0.07732967 -0.5436423
-0.07224351 0.030989243 -0.50470126 0.06325889 0.13411579 -0.09784912 0.07457583 0.061895404
0.047746167 0.03716415 0.01762134 0.15439035 -0.067980975 0.12123534 0.10136196 -0.023864402
-0.08920358 0.044754334 -0.6727387 -0.029519688 -0.028987272 -0.58483773 0.07396271 -0.09467815
-0.06717617 -0.3608676 -0.21798033 0.0134457005 0.51267844 -0.27105966 -0.06746249 0.01961756
0.08927907 -0.0067894696 0.721955 -0.39972907 0.0008592748 -0.009411703 0.032537185 0.08723627
0.25255966 0.05872015 -0.52535903 -0.093095236 -0.07058516 0.08380205 -0.0019285352 0.029585475
0.07252195 -0.13994138 -0.2069594 -0.38660726 0.28186455 0.023111913 0.04774232 0.09641642
-0.5419055 -0.3459275 -0.00934636 0.11890627 -0.024490474 -0.5127986 0.025735328 -0.7210214
0.13330895 -0.07123315 -0.11239165 0.21287453 -0.18608217 0.05005904 0.19934365 -0.2793992
-0.039382283 -1.4548647 -0.9007441 -0.057953835 0.026347378 -0.5804464 0.12267791 -0.035971384
-0.037641555 0.05087111 -0.030117339 -0.18793578 -0.018499048 -0.23193084 -0.078725696 -0.13493513
-0.34565455 0.088496655 0.06124727 0.030984722 0.05241394 -0.035269827 0.13952173 -0.03925494
-0.022964882 -0.3791431 0.009635702 0.119452484 0.117829524 -0.08367145 -0.034859464 -0.15231973
0.008579245 0.036320556 -0.77033204 0.1646977 0.06889768 -0.20689055 -0.008858885 -0.19377542
0.056600578 -0.0023911542 -0.45080215 -0.07205983 0.043931387 0.020368658 0.11925677 -0.310298
0.086403236 0.035973854 0.022094132 -0.120997176 0.042816512 -0.3279095 0.15855066 0.05561306
00000000: a6eb d3bd fd9e 00bf ef2a d5be 8c8b 41bc
00000010: 7f71 073c b170 37be 1a1a 043e 4d26 b13e
00000020: d8da 963d 36bb a13c 3487 cf3c fe7c 373b
00000030: 553c 273a 8b4e 83bd de34 3c3d eccc 553e
00000040: 4936 5d3d 4ed1 b43d c7a3 9abc 4232 c6be
00000050: 8523 183d c6aa 2bbe 22f1 033e 68ea e7bd
00000060: 0e2d 8c3c a007 87be 2f8b 0c3d 56be 233d
00000070: c3e0 d6be c304 f13a 9928 193e 3400 1cbe
00000080: 7dbb a0be d723 59bd e9c9 863e 54a5 38be
00000090: f505 d03c 1061 de3d fabb f6bc 670f 02be
000000a0: 7696 22bc 10a5 cb3d d514 ad3d c5b3 e0bd
000000b0: d8d2 d0bd c659 883d 7efc 3bbd 86cb 9ebe
000000c0: 3eca 68bc b6a6 29be 187f 6fbc c6c9 5abd
000000d0: 81bc 993d 3eb8 90be 62dc 273e bdc0 53bd
000000e0: 74ee 8b3d 342f 47be cd9d 893d 68d6 88bb
000000f0: abb9 1e3e 0576 a23d f09f 07be d302 223e
00000100: a847 6a3d ba6e ba3d 50d7 9dba edfe a0bd
00000110: 461d 973e 8cd7 2abd b1de 363e 6bc6 6d3e
00000120: d913 cfbc 3ad0 29bd 3c17 dabc 7e8c ab3d
00000130: 1543 5e3d 6394 dbbd 51f2 0abd 6ebf c1be
00000140: e26b 9dbe 25d1 2b3d 571b 3cbc b6da 32bc
00000150: 16a4 37bb 828b 79bd 69b2 273d 69e3 afbe
00000160: 2e5b 91bd caa5 0dbe 0992 22bb cf46 123e
00000170: ba4e 9d3d 1d11 28bc cf72 89bd 8f77 0b3e
00000180: 8e05 99be 001f 2bbc aed4 c2be 01b1 433b
00000190: e75c 00be 26bc 8fbe 82ee 76bd 6ca8 273d
000001a0: c9a7 a7bd 2ca6 b1be 6a1d d9be 0914 8fbd
000001b0: c52b fbbd 2cd9 cf3c 1c90 2c3d 332b 453d
000001c0: c40c 40bd 0d40 64bf d240 cabd 41ff 1bbe
000001d0: 6e21 1abf a244 8bbd 4fc5 85bd 98f3 00bf
000001e0: 5c1f 1d3b 88be 003e 1f5d 08bf f156 0abe
000001f0: 1dc1 37bd 069e a73e 055f 9ebd 242c 0bbf
00000200: 68f4 93bd 27dd fd3c 1a34 01bf e08d 813d
00000210: a655 093e 1f65 c8bd 36bb 983d 0986 7d3d
00000220: 7c91 433d 7039 183d a15a 903c 8118 1e3e
00000230: 9c39 8bbd 3c4a f83d dc96 cf3d 477f c3bc
00000240: 5eb0 b6bd 5250 373d 9a38 2cbf 46d3 f1bc
00000250: b776 edbc edb7 15bf c379 973d 9ee6 c1bd
00000260: a993 89bd a3c3 b8be 3c36 5fbe 5b4b 5c3c
00000270: e53e 033f 55c8 8abe c629 8abd 01b5 a03c
00000280: f2d7 b63d 337a debb 0bd2 383f 4aa9 ccbe
00000290: f540 613a 8b33 1abc b645 053d eea8 b23d
000002a0: 804f 813e 8a84 703d ee7d 06bf b7a8 bebd
000002b0: f48e 90bd 69a0 ab3d e7c6 fcba 3d5d f23c
000002c0: 6386 943d cb4c 0fbe 2aed 53be 63f1 c5be
000002d0: 8d50 903e 3255 bd3c 738d 433d f975 c53d
000002e0: 52ba 0abf 691d b1be 7a21 19bc 2185 f33d
000002f0: 3fa0 c8bc c546 03bf e5d2 d23c dc94 38bf
00000300: 2482 083e b0e2 91bd 982d e6bd c8fb 593e
00000310: 538c 3ebe b50a 4d3d be20 4c3e 690d 8fbe
00000320: 514f 21bd 0239 babf 2a97 66bf 0061 6dbd
00000330: 75d6 d73c 2398 14bf 8e3e fb3d bb56 13bd
00000340: 082e 1abd 3a5e 503d a3b8 f6bc 3d72 40be
00000350: 518b 97bc 477f 6dbe f03a a1bd 6f2c 0abe
00000360: a2f9 b0be bc3d b53d 6bde 7a3d acd3 fd3c
00000370: 00b0 563d 1877 10bd c9de 0e3e cac9 20bd
00000380: d920 bcbc 0b1f c2be 10df 1d3c 81a3 f43d
00000390: 9b50 f13d f05b abbd ccc8 0ebd b4f9 1bbe
000003a0: f68f 0c3c ddc4 143d 7b34 45bf 84a6 283e
000003b0: 3a1a 8d3d 1edb 53be db24 11bc 106d 46be
000003c0: 02d6 673d e9b4 1cbb 8acf e6be 1b94 93bd
000003d0: 66f1 333d 2cdc a63c e53c f43d 61df 9ebe
000003e0: 2ef4 b03d 5259 133d c1fe b43c 5ecd f7bd
000003f0: 5e60 2f3d c1e3 a7be 1b5b 223e 85ca 633d

fc2.bias f4 [10]
-0.033821445 -0.14671528 -0.0821106 -0.038903568 -0.31523576 -0.16889307 0.2386545 0.111570075
0.036627192 -0.1880138
00000000: 5b88 0abd 883c 16be 9a29 a8bd 5959 1fbd
00000010: 9566 a1be 4ef2 2cbe d861 743e da7e e43d
00000020: 6506 163d b186 40be
