Models/myCIFAR10Model.pt (torch_old, 327881 bytes, 10 tensors)

conv1.weight f4 [6, 3, 5, 5]
0	0xbdc25289	-0.094883986
1	0xbcd82d07	-0.026388658
2	0xbdd6d1f5	-0.10489265
3	0x3d95f8de	0.07322858
4	0xbd7d633b	-0.06186221
5	0xbe0bf77f	-0.13668631
6	0x3da4653a	0.0802712
7	0xbd4d9798	-0.0501934
8	0xbd0616de	-0.03273665
9	0x3d2c0c7b	0.04200409
10	0xbcc368be	-0.023853656
11	0xbde73e99	-0.112912364
12	0x3b0a0292	0.002105866
13	0x3d23a52d	0.039952446
14	0x3d507e10	0.050901473
15	0xbe06553d	-0.13118453
16	0x3cea05d1	0.028567227
17	0xbd2dc595	-0.042424757
18	0xbc67726e	-0.014126403
19	0xbd789672	-0.06069035
20	0x3cf6068c	0.030032419
21	0xbd90f2b1	-0.0707754
22	0xbde76a34	-0.112995535
23	0xbda66f24	-0.08126667
24	0xbd00b468	-0.03142205
25	0xbc958886	-0.018253576
26	0xbdd71aec	-0.10503182
27	0xbdda062b	-0.10645708
28	0xbdc2e654	-0.09516588
29	0x3d45cd13	0.048291277
30	0xbcdf0f88	-0.027229086
31	0x3d614e82	0.05500651
32	0xbd1d9f02	-0.03848172
33	0xbd5924d4	-0.053013638
34	0xbc075495	-0.008259912
35	0xbd6098d8	-0.054833263
36	0x3c742491	0.014901296
37	0xba11705f	-0.00055480556
38	0x3d03fe32	0.03222484
39	0xbd884cf4	-0.06655303
40	0xbd81bc1b	-0.063347064
41	0x3d5ece56	0.054395996
42	0x39519760	0.00019988185
43	0x3bc9550e	0.0061441725
44	0xbd4870d5	-0.04893573
45	0x3cda2b5a	0.026632
46	0xbdb3cf68	-0.08779794
47	0x3b1b3b28	0.0023686383
48	0x3d0bda0c	0.034143493
49	0xbd773d4a	-0.060361184
50	0xbc8e0030	-0.017334074
51	0xbd8d76b5	-0.06907407
52	0xbd7ee31c	-0.062228307
53	0xbd3d8954	-0.046273544
54	0xbdb67379	-0.089087434
55	0xbdfb42b0	-0.12268579
56	0xbdd33d3f	-0.10314416
57	0x3dbee6b9	0.093213506
58	0x3d357f99	0.04431114
59	0xbd820859	-0.063492484
60	0x3d37fca2	0.044918664
61	0xbb00f5a1	-0.0019677656
62	0x3d73caa0	0.05951941
63	0xbdbbf8d4	-0.091783196
64	0xbdb08834	-0.08619729
65	0xbd408d2f	-0.047009643
66	0xbcfa58d7	-0.03055994
67	0xbe07ec3f	-0.13273714
68	0x3d6af8e7	0.057366278
69	0xbd411011	-0.047134463
70	0x3d4c6d65	0.049909014
71	0xbd93ad7e	-0.072108254
72	0xbd1a2ff9	-0.037643407
73	0x3d2ab4d2	0.04167635
74	0xbd0ece58	-0.034864753
75	0x3eaa4a90	0.33260012
76	0x3eb6d9df	0.35713097
77	0x3ec3edfc	0.38267505
78	0x3e86f7f9	0.26361063
79	0x3e908855	0.28229013
80	0x3e97ab8a	0.2962306
81	0x3e80a1b6	0.25123376
82	0x3eb0563a	0.34440786
83	0x3ebafc0d	0.36520424
84	0x3e4f9fab	0.20275752
85	0x3db8c596	0.090220615
86	0x3e8f3cae	0.27975982
87	0x3e293c23	0.16526847
88	0x3e2e8a03	0.17044835
89	0x3d8f1b09	0.069875784
90	0xbd6e46ea	-0.058173098
91	0xbe0fa213	-0.1402667
92	0xbe14316f	-0.14471982
93	0xbdb89da8	-0.090144455
94	0xbe786bdc	-0.24259895
95	0xbe146131	-0.144902
96	0xbdffb576	-0.12485783
97	0xbe1c4399	-0.15260161
98	0xbe1eb2a5	-0.15497835
99	0xbeacc72c	-0.33745706
100	0xbe59a178	-0.21253002
101	0xbe61c066	-0.2204605
102	0xbe7fd007	-0.249817
103	0xbe17fbe3	-0.14842181
104	0xbea2f706	-0.3182909
105	0xbe128bd1	-0.14311148
106	0xbe7ca8a2	-0.24673703
107	0xbe7f7249	-0.2494594
108	0xbeb0cc2e	-0.34530777
109	0xbe2d9350	-0.16950727
110	0xbc82e872	-0.01597998
111	0xbdabf9df	-0.083972685
112	0xbe343493	-0.1759818
113	0xbe28314a	-0.16425052
114	0xbe347332	-0.17622069
115	0xbd8ccb01	-0.068746574
116	0xbd7021e2	-0.058626063
117	0xbe1c681f	-0.15274094
118	0xbd82f1aa	-0.0639375
119	0xbce8b53d	-0.028406734
120	0xbd81cddc	-0.06338093
121	0xbda8a4b3	-0.08234539
122	0x3c8af838	0.016964063
123	0xbd0993bb	-0.033588152
124	0xbd1d7b0c	-0.038447425
125	0xbda78927	-0.081804566
126	0xbdeaeaa6	-0.11470537
127	0xbd5fb64d	-0.054617215
128	0xbe3d80cb	-0.18506162
129	0xbdd04921	-0.10170198
130	0xbe440247	-0.19141494
131	0xbde8fa70	-0.11375892
132	0xbe681d73	-0.22667484
133	0xbe4b8638	-0.19875419
134	0xbe69471f	-0.22781037
135	0xbd981355	-0.07425562
136	0xbde403b0	-0.11133516
137	0x3ddd1992	0.10795893
138	0xbe0e11c1	-0.1387396
139	0x3dbd367b	0.09238907
140	0x3dd83798	0.10557479
141	0x3dbf0def	0.093288295
142	0x3e5dfc3b	0.2167825
143	0x3d21ca8d	0.039499808
144	0x3ea14f13	0.3150564
145	0x3d85b158	0.06527966
146	0x3e693e2c	0.22777623
147	0x3e9a250f	0.30106398
148	0x3e1ee7ce	0.15518114
149	0x3e951606	0.29118365
150	0x3deda6dd	0.11604092
151	0xbdca3d0e	-0.098749265
152	0xbe5bce2e	-0.2146537
153	0xbdf9ff2a	-0.12206872
154	0x3e1e283e	0.15445039
155	0x3d8f6bfd	0.07003019
156	0xbe161f0f	-0.14660285
157	0xbefd6a45	-0.4949514
158	0xbecf1879	-0.4044836
159	0x3d55c5b9	0.052190516
160	0x3d9a3485	0.075295486
161	0xbdbd3543	-0.092386745
162	0x3dc17be3	0.09447458
163	0x3d56f755	0.052481968
164	0x3db9b632	0.09067954
165	0xbd6f67ff	-0.058448788
166	0x3d1f86a1	0.03894675
167	0x3e3a42c7	0.18189536
168	0x3e51fa8f	0.20505737
169	0x3c9ee7c6	0.019397628
170	0xbd5ebf04	-0.054381385
171	0x3dd31163	0.10306051
172	0x3e7b6774	0.24551183
173	0x3df31a84	0.11870292
174	0x3d09f236	0.033678256
175	0xbc6b70bd	-0.014370141
176	0xbe41be83	-0.1892033
177	0xbeb426e9	-0.35185936
178	0xbe335dee	-0.175163
179	0x3e124c87	0.14287005
180	0xbd984e0c	-0.07436761
181	0xbe8f5105	-0.279915
182	0xbed1f037	-0.41003582
183	0xbe9dbfe4	-0.30810463
184	0xbd192d75	-0.037396867
185	0xbe4ac293	-0.19800787
186	0x38c8140a	9.540476e-05
187	0xbd770c2a	-0.060314335
188	0x3c314ad7	0.010821066
189	0xbb0190e4	-0.00197702
190	0xbdc9b1c3	-0.098483585
191	0x3d868a09	0.06569297
192	0x3e694e70	0.22783828
193	0x3e253649	0.1613399
194	0xbd849866	-0.0647438
195	0xbe27d840	-0.16391087
196	0x3d1489fd	0.03626441
197	0x3c7ba3db	0.01535889
198	0x3e06e6b3	0.13173942
199	0xbe0d5d06	-0.13805017
200	0x3e1f56a9	0.15560402
201	0xbe0b1ffc	-0.1358642
202	0xbe31c941	-0.17361929
203	0xbde9d558	-0.11417645
204	0x3eac995a	0.33710748
205	0xbdb1318b	-0.08652028
206	0xbe4239e5	-0.18967398
207	0xbe779340	-0.24177265
208	0xbe94bca4	-0.2905017
209	0x3d2d365e	0.042288177
210	0x3c668f03	0.014072183
211	0x3d936fa8	0.07199031
212	0x3d85e3af	0.06537568
213	0x3dfd9414	0.12381759
214	0xbdbd4b1b	-0.09242841
215	0x3c7c0ad1	0.015383438
216	0x3e296239	0.16541375
217	0x3e9c2699	0.30498198
218	0x3e988fe9	0.29797295
219	0x3a67f615	0.000884862
220	0x3d8a5d05	0.06756023
221	0x3e003e68	0.12523806
222	0x3ea3184f	0.31854483
223	0x3e71930f	0.23591255
224	0x3d06365b	0.03276668
225	0xbdfda89e	-0.12385677
226	0xbd8f919d	-0.070101954
227	0xbd439cf9	-0.047757123
228	0xbdc080d9	-0.09399576
229	0x3b0b6ee3	0.002127581
230	0xbe2beaf6	-0.16788849
231	0xbce82fb6	-0.028343063
232	0xbe0fe0fa	-0.14050665
233	0xbd8882b6	-0.06665556
234	0xbda6f227	-0.08151656
235	0xbdcec74b	-0.10096606
236	0xbd798444	-0.060917154
237	0xbdaf4435	-0.08557931
238	0xbe9844e6	-0.29740065
239	0xbe785b44	-0.24253565
240	0xbe002b05	-0.1251641
241	0xbd0b390c	-0.03398995
242	0xbe40cfa0	-0.18829203
243	0xbe8c1daa	-0.27366382
244	0xbe07480d	-0.13211079
245	0x3d6120d5	0.05496295
246	0xbd98b3bb	-0.07456156
247	0xbe6b9f8d	-0.23010083
248	0xbdee6756	-0.116408035
249	0xbe1e566b	-0.15462653
250	0xbe21562a	-0.15755525
251	0x3d695eb5	0.056975085
252	0xbc8fd264	-0.017556377
253	0x3d861036	0.06546061
254	0xbe6c3e65	-0.23070677
255	0xbdb34db7	-0.08755057

conv1.bias f4 [6]
0	0xbe1f9a05	-0.15586098
1	0x3e2ee00d	0.17077656
2	0x3ea96b70	0.3308978
3	0xbe0873df	-0.13325451
4	0x3dffb8c0	0.1248641
5	0x3da806ff	0.082044594

conv2.weight f4 [16, 6, 3, 3]
0	0xbe031077	-0.1279925
1	0xbd547bd1	-0.051875893
2	0x3dc8a5c8	0.09797245
3	0xbd0fb804	-0.0350876
4	0xbc8a51ba	-0.016884673
5	0xbca595d3	-0.020213043
6	0xbdb82202	-0.089908615
7	0x3d85ae69	0.06527407
8	0x3e087fb7	0.1332997
9	0xbdf75bc0	-0.12078047
10	0xbde952f1	-0.11392773
11	0x3e842e2e	0.25816482
12	0xbe9eb7a9	-0.30999497
13	0xbdfdb9bd	-0.123889424
14	0x3e0d2271	0.1378267
15	0xbeb33141	-0.34998515
16	0xbe3d4d70	-0.18486571
17	0x3e8110be	0.25208086
18	0x3d2a52c4	0.041582838
19	0xbe6c6445	-0.23085125
20	0x3e3cd529	0.18440689
21	0xbe578173	-0.21045475
22	0xbd3d3869	-0.046196375
23	0x3ddd71ff	0.10812759
24	0x3d2d9ffb	0.042388897
25	0x3e148458	0.1450361
26	0xbe97937c	-0.2960471
27	0xbed0f79c	-0.4081391
28	0xbe7b6eb6	-0.24553952
29	0xbd9bf314	-0.07614723
30	0xbebeb106	-0.37244433
31	0xbe362b8d	-0.17790051
32	0x3d52e5c7	0.051488664
33	0xbeeaf68e	-0.4589123
34	0xbde500c8	-0.1118179
35	0xbca178d6	-0.01971094
36	0x3c9065b7	0.017626626
37	0x3e22aa37	0.15885244
38	0x3e16d659	0.14730205
39	0x3e84984c	0.25897443
40	0x3e07e851	0.13272215
41	0xbe139d0b	-0.14415376
42	0xbedf84c8	-0.43655992
43	0xbe0d8e66	-0.13823852
44	0x3eee34b0	0.46524572
45	0xbd02a7fd	-0.031898487
46	0x3d724620	0.059148908
47	0xbe2f54f5	-0.17122252
48	0x3d8ec880	0.06971836
49	0x3dd7d7b0	0.10539186
50	0xbe5f3c20	-0.2180028
51	0x3da8bd4b	0.0823923
52	0xbdb55fac	-0.088561386
53	0x3ea72ab3	0.32649764
54	0x3d876128	0.06610328
55	0xbd044bee	-0.032298975
56	0xb936c42d	-0.00017429954
57	0xbd0d1fb4	-0.034454063
58	0x3deee462	0.11664654
59	0xbc2e38bf	-0.0106336465
60	0xbc808679	-0.015689122
61	0xbc7fae6b	-0.015605549
62	0x3df5819e	0.11987613
63	0x3ccbbc26	0.02486999
64	0xbc35ff3d	-0.011108217
65	0x3dcfa186	0.1013823
66	0xbca108a0	-0.019657433
67	0xbe477ccb	-0.19481198
68	0x3ddebc3a	0.10875745
69	0xbbb5043d	-0.005524187
70	0xbd8ddb9a	-0.06926651
71	0x3e9185aa	0.2842229
72	0x3bd9804a	0.0066376077
73	0x3d8c865d	0.06861565
74	0xbd1bc3d4	-0.038028553
75	0xbe11cd90	-0.14238572
76	0x3d8f582e	0.06999241
77	0xbe52bb4f	-0.20579265
78	0xbcce7660	-0.02520293
79	0x3e45a447	0.19300948
80	0xbe454667	-0.19265138
81	0xbc8b53a5	-0.017007658
82	0xbe6146b8	-0.21999633
83	0x3e2f6d9f	0.17131661
84	0x3e30c351	0.17262007
85	0xbd9d74ee	-0.07688318
86	0x3e05babe	0.13059518
87	0xbe0678bf	-0.13131998
88	0xbe95b4eb	-0.29239592
89	0x3daa7df6	0.083248064
90	0x3ca8a82b	0.020588001
91	0x3d1936a2	0.037405618
92	0xbda01203	-0.078159355
93	0x3dc6d72c	0.097090095
94	0xbebabe8f	-0.3647351
95	0x3d9843d9	0.07434816
96	0xbdc55eca	-0.0963722
97	0xbec1fcfb	-0.3788832
98	0xbe03569d	-0.12826009
99	0x3e3647bd	0.17800803
100	0xbf16d701	-0.5892182
101	0x3e8e9fb0	0.27856207
102	0x3e98f925	0.29877582
103	0xbf0161aa	-0.5053965
104	0x3e9710a3	0.2950488
105	0x3dc0a864	0.09407118
106	0xbf067612	-0.5252391
107	0x3e72aef9	0.2369956
108	0xbdbbbb54	-0.091665894
109	0x3d9b6560	0.07587695
110	0xbc8b33e4	-0.016992517
111	0x3d9fc7ce	0.078017816
112	0xbcc1093c	-0.023563974
113	0x3be1e440	0.0068936646
114	0xbdb90d70	-0.09035766
115	0xbd546828	-0.051857144
116	0xbcdba85c	-0.026813678
117	0xbdf661a0	-0.12030339
118	0xbdbb4d82	-0.09145643
119	0xbdd4f18a	-0.103976324
120	0xbe1712dd	-0.1475329
121	0xbe0725a3	-0.13197951
122	0x3de90a18	0.11378878
123	0x3e51c7e3	0.20486407
124	0x3ead918d	0.3390011
125	0x3dd67ece	0.10473405
126	0x3eec53a0	0.4615755
127	0x3ed81e67	0.42210695
128	0x3eaa0273	0.33204994
129	0xbf074a25	-0.5284751
130	0xbeb99524	-0.36246598
131	0xbe1d04d6	-0.15333876
132	0xbf4eeece	-0.8083314
133	0xbf20732a	-0.62675726
134	0xbe80806f	-0.25097987
135	0x3c8af33a	0.016961683
136	0xbe812145	-0.25220695
137	0x3d83bf3b	0.06432959
138	0xbe0c066a	-0.13674322
139	0xbda2b3cb	-0.07944449
140	0xbe4a9a24	-0.19785362
141	0xbd678551	-0.056523625
142	0xbe205c37	-0.15660177
143	0xbeae49ed	-0.34040776
144	0xbe5f70c3	-0.21820359
145	0xbf1bef55	-0.60912067
146	0xbf363b13	-0.7118389
147	0xbe903f98	-0.28173518
148	0x3e006d52	0.12541702
149	0xbefe109e	-0.49622053
150	0xbd9f5992	-0.07780756
151	0x3dcec978	0.10097021
152	0x3db33976	0.08751194
153	0xbede6a31	-0.43440393
154	0x3e08213a	0.13293925
155	0x3cf94f99	0.030433463
156	0xbe1423a4	-0.14466721
157	0x3e00cce5	0.12578161
158	0x3dea10c8	0.11428982
159	0xbeaccf7f	-0.33752057
160	0x3dfbd436	0.122963354
161	0xbc107e3e	-0.008819161
162	0xbdb043dc	-0.08606693
163	0xbdb9c612	-0.09070982
164	0x3dcc1100	0.0996418
165	0xbd122879	-0.03568313
166	0xbcd7dec4	-0.02635134
167	0xbdea1bd5	-0.1143109
168	0xbdf0408b	-0.117310606
169	0x3d0705dc	0.032964572
170	0xbe0068ae	-0.12539932
171	0xbcf7bc4e	-0.030241158
172	0x3ebdcece	0.37071842
173	0x3d8c1338	0.06839603
174	0x3dd86c7b	0.10567566
175	0x3e1b5042	0.15167335
176	0x3b590d5b	0.0033119533
177	0x3e5b1bc1	0.21397306
178	0x3defca0f	0.117084615
179	0xbe49b444	-0.19697672
180	0x3df0a380	0.11749935
181	0x3def97f4	0.11698905
182	0x3d95c136	0.07312243
183	0x3d08f906	0.033440612
184	0x3e0a2ea8	0.1349436
185	0x3dac2fe8	0.08407575
186	0x3e8403fd	0.25784293
187	0x3debd515	0.115152515
188	0xbde4d1f5	-0.111728586
189	0xbde24b35	-0.11049501
190	0xbdfc05c9	-0.12305791
191	0xbdb4e980	-0.08833599
192	0xbdfa1f6b	-0.12213024
193	0xbe615780	-0.22006035
194	0x3e2772a1	0.16352321
195	0x3de9534d	0.113928415
196	0x3e0ecc9c	0.1394524
197	0x3e25a8e4	0.16177708
198	0xbccf857b	-0.025332203
199	0x3bd2b13c	0.0064298194
200	0xbcb1bd34	-0.021696664
201	0xbe2812d9	-0.1641344
202	0x3d589e90	0.052885592
203	0x3dc37953	0.09544625
204	0xbe304f4d	-0.17217751
205	0xbd23c7a4	-0.039985314
206	0x3cb32374	0.021867491
207	0x3c916b5e	0.017751392
208	0x3dba42a9	0.09094746
209	0x3cb9dac7	0.022687329
210	0xbd1ce18d	-0.03830104
211	0xbdc0a8fd	-0.09407232
212	0xbe0160b5	-0.12634547
213	0xbe784df4	-0.24248487
214	0xbeb745df	-0.35795495
215	0xbd672d40	-0.05643964
216	0x3ca7b187	0.020470394
217	0x3d0bf4f2	0.034169145
218	0xbdc5b0ed	-0.096528865
219	0xbdb88d65	-0.09011344
220	0x3db67875	0.08909694
221	0xbca7460f	-0.020419149
222	0xbc96c77e	-0.018405672
223	0x3dca32bb	0.09872957
224	0x3e02dfd8	0.12780702
225	0x3e807d14	0.25095427
226	0x3e4d162a	0.20027986
227	0x3db7371b	0.089460574
228	0x3e1560cc	0.14587706
229	0x3e3346fb	0.17507546
230	0x3e3dfd6c	0.18553704
231	0xbe5e824e	-0.21729395
232	0xbd44a89b	-0.048012357
233	0x3d864f57	0.065581016
234	0xbcef28cf	-0.029194264
235	0xbdf0e582	-0.11762525
236	0xbdbde9a3	-0.09273078
237	0x3d162657	0.036657657
238	0x3cb0f5cb	0.021601578
239	0x3d20305c	0.03910862
240	0x3cd1a6e2	0.025592271
241	0xbdf800fd	-0.121095635
242	0xbd19d8bf	-0.03756022
243	0xbd6bc5b4	-0.05756159
244	0xbaf7f7ee	-0.0018918493
245	0xbe9eb1cb	-0.3099502
246	0xbcace5d6	-0.021105688
247	0x3dcce0f6	0.100038454
248	0xbe4aa2ab	-0.19788615
249	0x3e4aba3b	0.19797604
250	0x3e263be5	0.16233785
251	0xbd944668	-0.072399914
252	0x3e046029	0.12927307
253	0x3e30a2b9	0.17249574
254	0x3dd96b00	0.10616112
255	0xbebfa112	-0.37427574

conv2.bias f4 [16]
0	0x3e115b98	0.14195096
1	0x3e256b79	0.16154279
2	0xbc5ac42d	-0.013352436
3	0xbd44282b	-0.04788987
4	0x3db9a88a	0.090653494
5	0xbe5cf260	-0.21576834
6	0xbe023a01	-0.12717439
7	0x3e1e4c0f	0.15458702
8	0x3eded0f5	0.43518797
9	0x3f1d3fea	0.6142565
10	0xbe5fb4e8	-0.21846354
11	0xbe5ef00a	-0.21771255
12	0x3e5f0854	0.2178052
13	0xbd847e9f	-0.064694636
14	0x3d1b79ee	0.037958078
15	0xbe9cd624	-0.30632126

fc1.weight f4 [120, 576]
0	0xbd3d4fbb	-0.046218615
1	0xbd068b30	-0.032847583
2	0xbd168ad9	-0.03675351
3	0xbd6c986f	-0.05776256
4	0xbcf9a78f	-0.030475406
5	0xbd5e46cb	-0.054266732
6	0xba3aa91b	-0.00071205356
7	0xbcb793d8	-0.022409365
8	0x3c94866c	0.018130504
9	0xbd065294	-0.032793596
10	0xbd49482f	-0.049141105
11	0xbd30e6ca	-0.043188848
12	0xbd8e4a7c	-0.069478005
13	0xbcb4cac4	-0.022069342
14	0xbb518c27	-0.0031974406
15	0xbd45f1a3	-0.048326146
16	0xbbdd5221	-0.0067541753
17	0xbca3b3aa	-0.019983131
18	0xbd8633d1	-0.06552852
19	0xbd2beb5e	-0.04197251
20	0xbcb55a7b	-0.022137871
21	0xbb16c58b	-0.0023005928
22	0xbd0c2e99	-0.034224126
23	0xbc87b4b0	-0.01656565
24	0x3a461ff7	0.0007557864
25	0xbd47c44e	-0.048771195
26	0xbd6fc518	-0.058537573
27	0xbce04dc2	-0.027380828
28	0xbcf3f8aa	-0.029781658
29	0xbd293161	-0.041306857
30	0x3cc8f275	0.024529675
31	0xbc80ff5a	-0.015746761
32	0x39d847f0	0.00041252328
33	0xbbbe795d	-0.0058128075
34	0xbcaf3ff1	-0.021392794
35	0xbc447ba5	-0.01199237
36	0xbd01e604	-0.0317135
37	0xbd18512f	-0.037186798
38	0xbc378dcb	-0.01120324
39	0xb9a095c0	-0.0003062915
40	0xbd45883a	-0.04822562
41	0xbc2a4948	-0.010393448
42	0xbc9dc740	-0.019260049
43	0xbd3e34d4	-0.0464371
44	0x3c98569f	0.018595992
45	0xbc8941b0	-0.016754955
46	0xbd32b174	-0.043626264
47	0xbd53326b	-0.051561754
48	0xbd9b24ae	-0.075753555
49	0xbd1a11c8	-0.037614614
50	0xbc9aa479	-0.018877255
51	0x3b44308b	0.002993616
52	0xbd175d7a	-0.03695438
53	0xbd2ed06d	-0.04267924
54	0xbd35ea3f	-0.044412848
55	0x3ba96bf0	0.005170338
56	0xbb32a3b3	-0.0027258217
57	0xbd19ecaf	-0.037579235
58	0x3d0f3ab2	0.034968086
59	0xbcaf4418	-0.021394774
60	0xbce5d153	-0.028053915
61	0xbd8e6c8e	-0.06954299
62	0xbc6a495d	-0.014299718
63	0xbbfa1cde	-0.007632836
64	0xba7ddf8c	-0.0009684495
65	0xbd2163e9	-0.039401922
66	0xbc6b269c	-0.014352467
67	0xbc46a4fd	-0.012124297
68	0xbd1181c7	-0.035524156
69	0xbcd3e0d6	-0.025864046
70	0xbd1bf30c	-0.038073584
71	0xbd92f951	-0.071764596
72	0x3d02851d	0.031865228
73	0xbb7b7eb0	-0.0038375072
74	0x3cdd9bf2	0.0270519
75	0xbc02b44c	-0.007977556
76	0xbcfaa5a3	-0.03059656
77	0x3cce4c62	0.025182907
78	0xbd1bcf9a	-0.03803978
79	0x3b1d5230	0.0024005286
80	0xbb65b050	-0.0035047717
81	0xbd26bd4c	-0.04070787
82	0x3ce38636	0.027773958
83	0x3c9abce2	0.018888894
84	0x3ca35676	0.019938689
85	0x3be66338	0.0070308708
86	0xbc21c2fc	-0.009873148
87	0xbc890413	-0.016725576
88	0xbc553bd6	-0.013014754
89	0x3a4f9f40	0.00079201534
90	0x3c2adb60	0.01042828
91	0x3c771ac0	0.015082061
92	0x3d19ad87	0.037519004
93	0x3cc35f7e	0.023849245
94	0x3c1f238c	0.009713065
95	0xbcc9f5d0	-0.024653345
96	0xbc180d1c	-0.009280469
97	0x3c7750a4	0.01509491
98	0x3c0106b4	0.007875133
99	0x3c934530	0.017977327
100	0xbafed320	-0.0019441582
101	0x3cbb3b42	0.022855405
102	0x3cf040e2	0.029327814
103	0x3cdff8b2	0.027340267
104	0xbb8b8f58	-0.0042590313
105	0xbccb3758	-0.024806663
106	0xbcec38e3	-0.02883572
107	0xbc2aed7c	-0.010432597
108	0xbc83d867	-0.0160944
109	0xbd2302ef	-0.03979772
110	0x3c38eec3	0.011287394
111	0x3cbfde1b	0.023421338
112	0xbc6870b1	-0.014187024
113	0xbd70b2fb	-0.05876444
114	0x3c8a5558	0.016886398
115	0x3d1856ea	0.037192263
116	0x3d01661d	0.031591523
117	0xbd5c1958	-0.053735107
118	0xbd295c26	-0.041347645
119	0xbd6b514d	-0.05745058
120	0x3ca9dfad	0.02073654
121	0x3cbee7fc	0.023303978
122	0xbd470033	-0.048584174
123	0xbd675422	-0.05647672
124	0xbd0280bf	-0.031861063
125	0xbcc9f462	-0.024652664
126	0x3ca11e24	0.019667692
127	0xbc40cd10	-0.011767641
128	0xbd731ea2	-0.059355386
129	0xbd8a7901	-0.06761361
130	0xbd34c767	-0.044135477
131	0x3c1933d2	0.009350734
132	0x3cb13c7f	0.021635292
133	0xbd90d389	-0.07071597
134	0xbd0b4a5b	-0.034006458
135	0xba415548	-0.00073750736
136	0xbd3129fa	-0.043252923
137	0xbd946553	-0.072458886
138	0xbc028b9c	-0.007967856
139	0xbd1096f2	-0.035300203
140	0xbd97da07	-0.07414632
141	0xbd60cfd2	-0.054885693
142	0xbd73d0e4	-0.059525385
143	0x3a0a50d0	0.0005276324
144	0x3b10dfff	0.0022106168
145	0xbd29e677	-0.041479554
146	0x3d0c5e65	0.03426971
147	0xbd5ae9bc	-0.053445563
148	0xbceedc2f	-0.029157726
149	0xbb08b2fa	-0.0020858631
150	0xbcef4a52	-0.029210243
151	0x3c66360a	0.01405097
152	0xbceab261	-0.02864951
153	0xbc9c3dd2	-0.019072447
154	0xbb234375	-0.0024912034
155	0x3ce89bcb	0.0283946
156	0x3b7792f2	0.0037776795
157	0xbcf1ee93	-0.029532706
158	0xbd647850	-0.0557788
159	0xbd8a8253	-0.067631386
160	0xbd0451e4	-0.03230466
161	0xbd2f2668	-0.042761236
162	0x3a676cff	0.00088281924
163	0xbb1c8275	-0.002388147
164	0xbd1361ca	-0.03598193
165	0xbd9137eb	-0.07090744
166	0xbbe31f2d	-0.0069312067
167	0x3c760c81	0.01501763
168	0xbce59ed1	-0.028029831
169	0xbd0178ae	-0.03160923
170	0xb9398156	-0.00017691156
171	0xbd02f488	-0.031971484
172	0x3b12b88d	0.0022387833
173	0x3c899a09	0.016797082
174	0x3cb2e91d	0.021839673
175	0xbd0ff771	-0.035148088
176	0xbb7914bd	-0.0038006746
177	0x3bd87698	0.0066059344
178	0xbcef056f	-0.029177396
179	0x3cc94109	0.024567144
180	0x3c25e06e	0.010124309
181	0xbc52df2f	-0.012870594
182	0x3c7bf072	0.015377151
183	0xbcdeaa70	-0.02718088
184	0x3c792343	0.015206161
185	0x3c1f3c1d	0.009718922
186	0xbd24986f	-0.040184435
187	0xbb03679a	-0.0020050765
188	0xbc0d1130	-0.008610055
189	0x3a81d2e5	0.000990477
190	0x3d1176ea	0.035513796
191	0xbc05cedf	-0.008166998
192	0x3d07f96b	0.033196848
193	0x3c4a5fc1	0.012351931
194	0xbc48d0b8	-0.012256794
195	0xbc73b66a	-0.014875034
196	0xbd11dc4f	-0.035610493
197	0x3c69a6bc	0.014260944
198	0xbd05bca2	-0.032650597
199	0xbc2173a5	-0.009854232
200	0xbd286599	-0.041112516
201	0xbd95e701	-0.07319451
202	0xbd3ed2b9	-0.04658768
203	0x3b1b1335	0.0023662571
204	0x3c4461c1	0.011986197
205	0xbc2ce9b6	-0.010553768
206	0xbc8f8890	-0.017521173
207	0xbc12e402	-0.008965494
208	0xbbbd40e0	-0.005775556
209	0x3bdca2ae	0.00673326
210	0xbd4e222b	-0.050325554
211	0xbcf6def9	-0.030135619
212	0x3b64351e	0.00348217
213	0xbd7ba4e2	-0.06143654
214	0xbd276201	-0.04086495
215	0x3a19c3ef	0.0005865683
216	0x3cd97ced	0.026548827
217	0xbc691634	-0.014226485
218	0xbd9493dc	-0.072547644
219	0xbd91141f	-0.07083916
220	0xbd6305b7	-0.055425372
221	0x3a41f9e1	0.00073996006
222	0xbb5f151a	-0.0034039677
223	0x3c6a058b	0.014283548
224	0xbabe1b71	-0.0014504028
225	0xbcea4b7d	-0.028600449
226	0x3c87063a	0.016482461
227	0x391d7591	0.00015016484
228	0xbd28137d	-0.04103421
229	0xbcdf42e4	-0.027253576
230	0xbd017435	-0.031604964
231	0xbd18ae5d	-0.03727566
232	0xbd31c40f	-0.043399867
233	0xbd533dcf	-0.051572617
234	0xbd008e45	-0.03138568
235	0x3a0d453b	0.0005389039
236	0x3b87aec0	0.004140705
237	0xbd2aa92d	-0.041665245
238	0xbcc29bf5	-0.023756007
239	0xbd65ec21	-0.056133393
240	0xbd96b754	-0.07359186
241	0x3b2e1e17	0.0026568228
242	0xbd863b0d	-0.06554232
243	0xbda0f002	-0.07858278
244	0xbd4c5275	-0.049883325
245	0xbbb3d7a4	-0.005488353
246	0xbcce944b	-0.025217196
247	0xbd4af992	-0.049554415
248	0xbc9c7f0f	-0.019103555
249	0x3ce584d9	0.028017448
250	0xbd2bdffe	-0.041961662
251	0xbc380347	-0.01123125
252	0x3ae9543b	0.0017801592
253	0xbcc40d1f	-0.023932038
254	0xbd94f0af	-0.07272469
255	0x3cb11146	0.021614682

fc1.bias f4 [120]
0	0xbd904d28	-0.070459664
1	0xbc385db0	-0.011252806
2	0x3ebb24cc	0.3655151
3	0xbb4c6cf8	-0.003119288
4	0x3c004cd4	0.007830817
5	0xbd2d924c	-0.042375848
6	0xbdb2a8ab	-0.08723577
7	0xbaf04687	-0.0018331566
8	0xbba7665b	-0.0051086373
9	0xbd2fc186	-0.042909168
10	0xbcc93e04	-0.024565704
11	0xbef7925a	-0.48353845
12	0x3cbbb4a8	0.022913292
13	0x3e299fee	0.16564915
14	0xbd219e6f	-0.039457735
15	0xbd1ab462	-0.037769683
16	0xbd5d8b91	-0.05408818
17	0xbd4149bb	-0.047189455
18	0xbce535e3	-0.027979797
19	0xbcaee236	-0.0213481
20	0xbd03e2ff	-0.032198902
21	0xbd6318aa	-0.055443443
22	0xbb993773	-0.0046757995
23	0xbd03cb37	-0.032176223
24	0x3df47ae3	0.11937501
25	0x3e645124	0.22296578
26	0x3e9e0bb8	0.30868316
27	0x3ce2c937	0.027683837
28	0x3bb6185e	0.005557104
29	0x3cb57545	0.022150645
30	0xbd1a4bed	-0.037670065
31	0x3c285aa4	0.010275517
32	0x3ef6007d	0.48047248
33	0xbcce6b60	-0.025197685
34	0xbd3531e3	-0.04423703
35	0xbe04b96c	-0.12961358
36	0xbd87f4d0	-0.06638491
37	0xbd3c65cb	-0.045995515
38	0x3d8d6a48	0.06905037
39	0xbe013991	-0.12619616
40	0xbd7e29b2	-0.062051482
41	0xbd7ff84d	-0.062492657
42	0xba95b2df	-0.0011421106
43	0xbd6b3a69	-0.05742875
44	0x3f1b7e2b	0.6073939
45	0xbb992613	-0.0046737283
46	0xbe6bb6a3	-0.23018889
47	0xbd66a137	-0.05630609
48	0xbd733820	-0.059379697
49	0xbedee0aa	-0.4353078
50	0xbd2e7dbb	-0.042600375
51	0x3f0a7e24	0.54098725
52	0xbc8b6ba7	-0.017019106
53	0xbc88a578	-0.016680464
54	0xbd13dc04	-0.036098495
55	0x3d28991d	0.041161645
56	0x3c48d38e	0.01225747
57	0xbd87e80e	-0.06636058
58	0x3f0bfad3	0.546796
59	0xbc5272b9	-0.012844735
60	0x3b639c78	0.0034730714
61	0xbd204686	-0.039129756
62	0xbd0521cf	-0.032502946
63	0x3e7cc8c8	0.24685967
64	0x3ed7b756	0.42132062
65	0xbe42e226	-0.19031581
66	0x3b71d7df	0.003690235
67	0x3c7a43b9	0.015274935
68	0xbe01081d	-0.12600751
69	0xbe2f6dd8	-0.17131746
70	0x3bf1ce78	0.0073793493
71	0x3c9e4d68	0.01932402
72	0xbd368a2e	-0.044565372
73	0x3e20ca9e	0.15702292
74	0xbc7819a6	-0.015142834
75	0xbd9a7061	-0.07540966
76	0xbee31087	-0.44348547
77	0x3ce94dc7	0.02847947
78	0xbd4990f0	-0.04921049
79	0x3ea61dd0	0.3244462
80	0x3ec7186d	0.38885823
81	0x3dff0b13	0.12453284
82	0xbd3ff0fd	-0.046860684
83	0xbc48d373	-0.012257445
84	0x3e9bfba6	0.3046543
85	0x3e7cb3b3	0.24677925
86	0x3b39df82	0.002836198
87	0xbdee043f	-0.11621904
88	0xbd39ee8f	-0.045393523
89	0xbe6d6ac0	-0.23185253
90	0xbd0c52f5	-0.0342588
91	0x3d8ea2e6	0.06964664
92	0xbd3b531b	-0.045733552
93	0x3cda125d	0.026620084
94	0x3ebe484b	0.3716453
95	0xbd5853f3	-0.052814435
96	0xbd5e3eee	-0.054259233
97	0x3acce21b	0.001563135
98	0x3ec2259e	0.37919325
99	0xbc6d0b89	-0.014468082
100	0xbd34dd30	-0.044156253
101	0x3bfd121e	0.007723107
102	0xbc8604f3	-0.016359782
103	0x3eed6f3c	0.46373928
104	0xbd77e4df	-0.060521003
105	0xbd317543	-0.04332472
106	0xbb84e39b	-0.004055453
107	0x3e54e0d8	0.20788896
108	0xbdf69a3c	-0.120411366
109	0x3cb43a94	0.022000588
110	0x3ec63b99	0.38717344
111	0xbd7b65fe	-0.061376564
112	0x3e838413	0.25686702
113	0x3e120d33	0.14262848
114	0x3d358a15	0.04432114
115	0xbef25a7c	-0.4733466
116	0xbe059c26	-0.13047847
117	0xbd7a4cfe	-0.06110858
118	0xbd89047f	-0.06690311
119	0xbd6662b7	-0.056246486

fc2.weight f4 [84, 120]
0	0x3d1dca50	0.03852302
1	0x3c9bedfd	0.01903438
2	0x3ce08723	0.027408188
3	0x3cec5c5c	0.028852634
4	0xbec27b85	-0.37984863
5	0x3d5fd9b7	0.05465099
6	0xbd9cfd91	-0.076655515
7	0x3d45926a	0.048235334
8	0x3c0fd2ad	0.008778256
9	0x3d54ee9c	0.051985368
10	0xb9c6cfee	-0.00037920423
11	0xbe332e36	-0.17498097
12	0x3d60053c	0.054692492
13	0xbc354836	-0.01106458
14	0x3d8fa6bb	0.07014223
15	0xbd93d44b	-0.07218226
16	0xbd98c4f3	-0.0745944
17	0x3d4b7a6d	0.0496773
18	0x3c66e869	0.014093497
19	0xbd03a1c7	-0.032136705
20	0x3aafbf80	0.0013408512
21	0xbd911f5f	-0.07086062
22	0xbc9486cd	-0.018130684
23	0xbb7886b9	-0.0037922098
24	0x3bd94388	0.006630365
25	0x3c95795c	0.018246345
26	0xbe28ef46	-0.16497526
27	0xbdb17a3e	-0.08665894
28	0x3dde0d16	0.1084234
29	0xbd528870	-0.05139965
30	0xbcd40b1a	-0.0258842
31	0x3e9d9578	0.30778098
32	0xbe211238	-0.15729606
33	0xbca29241	-0.01984513
34	0x3ccc2621	0.024920525
35	0x3ce2f07b	0.02770256
36	0xbe94c8a4	-0.29059327
37	0xbd808501	-0.062753685
38	0x3e534f38	0.20635688
39	0x3e98336c	0.29726732
40	0x3db618e7	0.088914685
41	0x3d448bf7	0.047985043
42	0x3cd68113	0.026184594
43	0xbbbb71e0	-0.005720362
44	0x3e3bdd4b	0.18346135
45	0x3e0249ef	0.12723516
46	0xbd962211	-0.073307164
47	0x3c89b77e	0.016811129
48	0x3e6b443e	0.22975251
49	0x3d5407d7	0.05176529
50	0x3da56026	0.080749795
51	0xbd4c701b	-0.0499116
52	0xbd86270e	-0.06550418
53	0x3c2ce245	0.010551994
54	0xbc4d9493	-0.01254763
55	0xbe20ff0f	-0.15722297
56	0x3da229be	0.07918118
57	0xbe2e49e8	-0.1702038
58	0x3eccd6fb	0.40007767
59	0x3da8dde0	0.08245444
60	0x3dc990e7	0.09842091
61	0x3cea9b52	0.028638516
62	0x3d715031	0.058914367
63	0x3dcbb196	0.09945981
64	0x3e80b908	0.25141168
65	0x3e54cd2e	0.20781395
66	0xbd98fc90	-0.074700475
67	0x3d1d4206	0.038393043
68	0xbeb4b488	-0.35293984
69	0xbe613fbd	-0.2199697
70	0x3de832dd	0.113378264
71	0x3cad5f81	0.021163704
72	0xbe77f94a	-0.2421619
73	0xbea4bc05	-0.32174698
74	0xbd4eafbf	-0.050460573
75	0xbd68f316	-0.05687245
76	0xbd1a81ea	-0.037721552
77	0x3d0134d8	0.031544536
78	0xbbb85fdd	-0.005626662
79	0xbd522eb0	-0.051314056
80	0x3e0d3566	0.13789901
81	0x3e38a548	0.180318
82	0x3d5a23c4	0.053256765
83	0xbd673c19	-0.056453798
84	0xbe4361f1	-0.1908033
85	0x3e4598d7	0.19296585
86	0xbd02379c	-0.031791314
87	0x3d4da208	0.050203353
88	0xbc3b1054	-0.011417467
89	0xbe0d7db0	-0.13817477
90	0xbd93bcf0	-0.07213771
91	0x3e853fca	0.2602523
92	0xbd8e1614	-0.06937805
93	0xbea06db4	-0.31333697
94	0x3e23ca74	0.15995198
95	0x3b9ea44b	0.0048413626
96	0x3db94d84	0.09047988
97	0xba3e9ec7	-0.00072715845
98	0xbe499417	-0.19685398
99	0xbe96ef2a	-0.29479343
100	0xbd1e6004	-0.038665786
101	0xbb42c8d0	-0.0029721744
102	0x3cd89fe3	0.026443427
103	0xbe0c06be	-0.13674447
104	0xbe8adf92	-0.27123696
105	0xbd548697	-0.051886167
106	0x3d5bc638	0.053655833
107	0x3dcf971f	0.10136246
108	0x3c82064a	0.01587214
109	0x3dbacbce	0.09120904
110	0xbe185347	-0.14875518
111	0x3ca57423	0.02019698
112	0xbea3d17a	-0.31995755
113	0xbdded0ba	-0.10879655
114	0x3da95387	0.08267885
115	0xbdc41237	-0.09573787
116	0x3eb382a5	0.3506061
117	0x3ce33dfd	0.02773952
118	0xbd70986c	-0.05873911
119	0x3cd78530	0.026308626
120	0xbdad8d8b	-0.08474263
121	0x3d0508d6	0.03247913
122	0xbe2d7374	-0.16938573
123	0x3db829a2	0.08992316
124	0xbdf5441f	-0.11975884
125	0x3d8c715c	0.06857559
126	0xbdec82ca	-0.115483835
127	0xbd950fcc	-0.07278404
128	0x3d3bc310	0.045840323
129	0x3cc03f5f	0.023467718
130	0xbba7c790	-0.0051202253
131	0xbde47486	-0.111550376
132	0x3cbafcd0	0.022825629
133	0xbe43dfe3	-0.19128375
134	0x3da3dd65	0.08001212
135	0xbc6eb6e0	-0.014569968
136	0xbd9c1d09	-0.076227255
137	0xbcb704ac	-0.022341095
138	0x3c454290	0.0120397955
139	0xbd6dede2	-0.05808819
140	0x3cccf514	0.025019206
141	0x3d66c69c	0.056341752
142	0xbd451747	-0.048117902
143	0xbd5b06c2	-0.05347324
144	0x3b9fd0bb	0.0048771775
145	0xbe1e12c3	-0.15436845
146	0xbe9b9184	-0.30384457
147	0xbd688fbb	-0.056777697
148	0x3ae7d380	0.0017686933
149	0xbdaf49ff	-0.085590355
150	0x3ca422f8	0.020036206
151	0x3d28bd27	0.041196015
152	0x3d059f1d	0.032622445
153	0xbce2a53c	-0.02766668
154	0xbdae7198	-0.0851776
155	0xbe5786e0	-0.21047544
156	0x3e8b36d9	0.27190283
157	0x3c2b9638	0.010472827
158	0x3e19b3e6	0.15010032
159	0x3e7c6460	0.24647665
160	0xbac48680	-0.0014993697
161	0x3d2f11dc	0.04274164
162	0x3da5d66e	0.0809754
163	0x3ad2f400	0.0016094446
164	0x3ed362c6	0.41286296
165	0x3de8dbbe	0.113700375
166	0xbed00ad9	-0.40633276
167	0xbc88edd4	-0.016714968
168	0xbefed299	-0.49770048
169	0xbe79629d	-0.24354024
170	0x3dab0be4	0.08351877
171	0xbe3125d4	-0.17299587
172	0x3d44aec8	0.048018247
173	0xbd8c9d0e	-0.06865893
174	0x3b3e2a40	0.0029016882
175	0xbd9e4843	-0.077286266
176	0xbd85d798	-0.06535262
177	0xbf22f6dc	-0.6365793
178	0xbdd93580	-0.106059074
179	0xbd1505f6	-0.036382638
180	0x3be5c109	0.007011537
181	0xbd3c590e	-0.045983367
182	0xbcdcf31c	-0.026971392
183	0xbe7230b0	-0.23651385
184	0x3e246ce8	0.1605717
185	0x3da4c89b	0.08046075
186	0xbe19cc93	-0.15019445
187	0xbd151c43	-0.036403906
188	0xbe701b61	-0.23447944
189	0x3ea65483	0.32486352
190	0xbe40968b	-0.18807428
191	0xbd5af7c3	-0.05345894
192	0xbdca9c45	-0.09893087
193	0x3ed6da8d	0.41963616
194	0x3caf5a84	0.021405466
195	0x3c32ecd0	0.010920718
196	0x3d6173c1	0.055042032
197	0x3ca23180	0.019798994
198	0xbd359d3c	-0.044339404
199	0xbe0fdba4	-0.1404863
200	0x3e4c3830	0.19943309
201	0xbe10b71d	-0.14132352
202	0x3d9e85fa	0.07740398
203	0xbdcf9231	-0.10135306
204	0x3c0e7d5f	0.008696883
205	0xbe9f140b	-0.3106998
206	0xbd931471	-0.07181633
207	0x3d8b6eaf	0.068082206
208	0xbd0d93f6	-0.034564935
209	0x3e22cf06	0.15899286
210	0xbd5a473a	-0.053290583
211	0xbef6be83	-0.48192224
212	0x3d2a3098	0.04155025
213	0x3d86f9e4	0.065906316
214	0xbe8e8a8f	-0.27840087
215	0xbdaa5798	-0.083174884
216	0xbcb22a6b	-0.021748742
217	0x3d2bf4ca	0.041981496
218	0xbd26424d	-0.040590573
219	0xbe4bab54	-0.19889575
220	0x3c174977	0.009233824
221	0x3d2803fb	0.04101942
222	0xbc8246d1	-0.015902909
223	0xbd2bfe34	-0.041990474
224	0x3c25e12a	0.010124484
225	0x3d50026c	0.05078356
226	0xbd9273b6	-0.07150976
227	0xbe28ab51	-0.16471602
228	0x3ef4f74b	0.4784492
229	0xbd85f86a	-0.06541522
230	0xbeadb0de	-0.33924
231	0xbf012b0a	-0.504563
232	0x3e2780c0	0.16357708
233	0xbefba6fd	-0.4915084
234	0xbce30d05	-0.02771617
235	0xbead6802	-0.33868414
236	0xbeae8d28	-0.3409207
237	0xbc924874	-0.017856814
238	0xbdd5f2ef	-0.104467265
239	0x3d1c3f04	0.038146034
240	0xbd2ac765	-0.041694064
241	0xbde6bada	-0.11266108
242	0xbd86a233	-0.06573906
243	0x3b87bce7	0.004142392
244	0xbdea6686	-0.11445336
245	0x3dba80c3	0.091065906
246	0x3e92f80b	0.28704867
247	0x3d420c56	0.047375046
248	0xbd9edd48	-0.0775705
249	0x3d973a37	0.073841505
250	0xbcfaf8d7	-0.030636234
251	0x3e0fb6ca	0.14034572
252	0xbdaae975	-0.0834531
253	0xbecbafd7	-0.39782593
254	0x3db16115	0.08661095
255	0xbd55c08e	-0.052185588

fc2.bias f4 [84]
0	0x3e796f7e	0.24358937
1	0x3c3fa5ba	0.011697227
2	0x3da08fe6	0.078399464
3	0xbe1bea00	-0.15225983
4	0x3ec703f6	0.3887021
5	0xbdca23c0	-0.098701
6	0x3c25398f	0.010084524
7	0xbe3e793d	-0.18600936
8	0x3e2f2882	0.17105296
9	0xbc13ab39	-0.009012991
10	0x3dbdfda7	0.09276896
11	0x3ed9977f	0.42498395
12	0xbe8c191c	-0.27362907
13	0xbe6b7ef6	-0.2299765
14	0xbe9f9309	-0.31166866
15	0x3eb981b7	0.36231777
16	0x3dd161e6	0.10223751
17	0x3ecbae2c	0.3978132
18	0x3ee094c1	0.4386349
19	0xbe9a9513	-0.3019186
20	0x3dac1b28	0.08403617
21	0xbdd27e03	-0.10277941
22	0x3ee986cc	0.45610654
23	0x3eca2317	0.39479896
24	0x3e041b24	0.12900978
25	0x3d7af1ea	0.061265863
26	0x3dc26c93	0.09493365
27	0xbe8d6ac9	-0.27620533
28	0x3dbe4d3b	0.09292074
29	0xbcd949b5	-0.026524404
30	0xbdbc4fff	-0.091949455
31	0xbd8ee22a	-0.06976731
32	0xbe5560a1	-0.20837642
33	0xbe1ce705	-0.15322502
34	0xbdb7207a	-0.08941741
35	0x3eab0ec2	0.33409697
36	0xbdec37ae	-0.115340576
37	0x3f1866c4	0.5953181
38	0xbddd1b81	-0.107962616
39	0xbea9d690	-0.3317151
40	0x3e4c19d0	0.19931722
41	0x3e3fe08c	0.18738002
42	0x3e8d712e	0.27625412
43	0x3e9c34a9	0.30508927
44	0xbe7c810b	-0.24658601
45	0xbdc8fb5c	-0.09813568
46	0x3e813026	0.25232047
47	0xbe2b2f4a	-0.16717258
48	0x3e2f18a6	0.17099246
49	0x3f12e382	0.573784
50	0xbe96e997	-0.2947509
51	0x3e00559b	0.12532656
52	0x3ed10ba7	0.40829203
53	0xbc7cbcb9	-0.015425854
54	0x3c92b8c9	0.017910378
55	0xbd1c9659	-0.03822932
56	0xbe14924f	-0.14508937
57	0xbbefb6b1	-0.0073154797
58	0xbd20280f	-0.039100703
59	0x3e368620	0.17824602
60	0x3da8d91a	0.08244534
61	0x3eaf148f	0.34195372
62	0xbe325504	-0.17415243
63	0xbe8327b8	-0.2561624
64	0x3f2d415f	0.67677873
65	0x3e14f9de	0.14548442
66	0x3f054881	0.5206376
67	0xbea29c64	-0.31759942
68	0xbea48be3	-0.32137975
69	0x3e556553	0.20839433
70	0x3ea796a1	0.32732108
71	0x3e23d4e1	0.15999176
72	0xbb21d334	-0.0024692537
73	0xbc863388	-0.016381994
74	0x3e85188b	0.25995287
75	0x3e937f8d	0.2880825
76	0x3c89361a	0.01674943
77	0x3e21e35e	0.1580939
78	0xbdf7e392	-0.121039525
79	0xbe906867	-0.28204653
80	0xbcadbc6f	-0.021208016
81	0x3e6cb267	0.2311493
82	0x3ea1e7eb	0.31622252
83	0xbe79e81d	-0.2440495

fc3.weight f4 [10, 84]
0	0xbdaf7c11	-0.08568586
1	0xbe1dfff2	-0.15429667
2	0xbe99f938	-0.3007295
3	0x3b6d1a2d	0.0036178932
4	0x3c9acb87	0.018895878
5	0xbd2192dd	-0.0394467
6	0x3d988337	0.07446902
7	0xbd86029c	-0.065434664
8	0xbd88bcb0	-0.06676614
9	0xbe6bf80c	-0.23043841
10	0xbe1b72f7	-0.15180574
11	0xbe584cdb	-0.21123068
12	0xbeae0919	-0.33991316
13	0x3d42e8b8	0.04758522
14	0x3e32aace	0.1744797
15	0xbeaa9c0a	-0.33322173
16	0xbdca57ef	-0.09880053
17	0xbd967a8b	-0.07347592
18	0xbe96a439	-0.29422167
19	0xbe89e4bd	-0.26932326
20	0x3e2eab2f	0.17057489
21	0xbd296a06	-0.041360877
22	0x3e217e93	0.1577094
23	0xbf21b05f	-0.63159746
24	0xbd45c9c5	-0.048288126
25	0xbdf9b997	-0.121936016
26	0xbd5b08f9	-0.053475354
27	0xbebea349	-0.37233952
28	0x3d4f6b9c	0.050639734
29	0xbe06b42b	-0.13154666
30	0x3bc403cc	0.005981898
31	0xbe8621f4	-0.2619778
32	0xbee44a51	-0.4458795
33	0xbe3a73ba	-0.18208209
34	0x3db8b0ef	0.090181224
35	0xbc2ec8c0	-0.01066798
36	0x3e6f61d8	0.23377168
37	0xbd059091	-0.032608572
38	0x3dfef98c	0.12449941
39	0xbc490445	-0.012269084
40	0x3d4bd851	0.049766842
41	0xbd404dc3	-0.04694916
42	0x3e840399	0.25783995
43	0xbdc5b841	-0.09654284
44	0x3e51a5bc	0.20473379
45	0xbe966572	-0.29374272
46	0xbe84a9e6	-0.25910872
47	0xbdd6058d	-0.104502775
48	0xbf06f371	-0.5271521
49	0xbed40baa	-0.4141515
50	0xbd9062b9	-0.0705008
51	0x3ddc8bbd	0.107688405
52	0xbe99adb9	-0.30015352
53	0x3db8a110	0.09015095
54	0xbef8b0f4	-0.48572505
55	0x3e6eec5f	0.23332356
56	0xbceb5086	-0.02872492
57	0x3d955263	0.07291105
58	0x3b587f5f	0.0033034903
59	0x3e22fe48	0.15917313
60	0x3df47b34	0.11937562
61	0xbe0d5fcc	-0.13806075
62	0x3da5e6bc	0.0810065
63	0x3d8a559e	0.067546114
64	0xbdee6f4e	-0.116423234
65	0xbe6fed77	-0.2343043
66	0x3d9053fd	0.070472695
67	0x3db558bf	0.088548176
68	0x3c887265	0.01665611
69	0x3e185ae7	0.14878426
70	0xbef09c3a	-0.4699419
71	0x3d754e68	0.059889227
72	0xbe411e7d	-0.18859287
73	0xbe2a6080	-0.16638374
74	0x3e263ece	0.16234896
75	0xbe823ab0	-0.254354
76	0xbee68b0e	-0.45027965
77	0x3dfd4eb5	0.12368528
78	0xbe6d697f	-0.23184775
79	0xbf204b2e	-0.62614715
80	0x3d0574aa	0.032581963
81	0xbd6034ce	-0.05473786
82	0x3d685a42	0.0567267
83	0xbdf6f071	-0.12057579
84	0x3d86bb75	0.06578723
85	0xbf0692a2	-0.52567494
86	0x3e08795b	0.13327543
87	0xbc94be8f	-0.018157272
88	0xbe826866	-0.25470275
89	0xbd3613ca	-0.044452466
90	0x3dbbb890	0.09166062
91	0x3c2413a0	0.010014445
92	0x3dde6272	0.10858621
93	0xbf84235b	-1.032329
94	0x3d96ca61	0.073628195
95	0xbef4eee3	-0.47838506
96	0xbea981f6	-0.33106965
97	0xbf1fdb43	-0.6244394
98	0x3dbce24f	0.092228524
99	0xbeea5b0e	-0.45772594
100	0x3d484319	0.048892114
101	0xbe388220	-0.18018389
102	0x3c083211	0.008312718
103	0xbf0d87f0	-0.5528555
104	0x3cb50cc8	0.022100821
105	0x3e4d68c9	0.20059504
106	0xbd81f61b	-0.06345769
107	0xbe8ed897	-0.2789962
108	0xbdeb7ca0	-0.1149838
109	0xbd775e7c	-0.06039284
110	0x3e058214	0.13037902
111	0x3d93ac14	0.07210556
112	0xbe37c95d	-0.17947908
113	0x3cbe7925	0.023251126
114	0xbddcfc9a	-0.107903674
115	0xbf38f272	-0.7224494
116	0xbf7e30ff	-0.9929351
117	0xbe20cc16	-0.15702853
118	0x3e584edd	0.21123834
119	0xbeb33455	-0.35000864
120	0xbe8a5292	-0.2701612
121	0xbe7d13ed	-0.24714632
122	0x3e76e5e8	0.2411114
123	0x3d899430	0.06717718
124	0x3e1fb6fa	0.15597144
125	0xbebded10	-0.37094927
126	0xbdb09ccb	-0.08623656
127	0xbd9202c3	-0.07129433
128	0xbf3e0bc5	-0.7423671
129	0x3df3d10e	0.119051084
130	0xbdcde70a	-0.10053833
131	0xbcc7c95e	-0.024388012
132	0xbf904d83	-1.1273655
133	0xbe549615	-0.20760377
134	0xbdaafd79	-0.08349127
135	0xbe56f0d6	-0.20990309
136	0x3e4762af	0.19471239
137	0x3e5b7b46	0.21433744
138	0x3e0b71c5	0.13617618
139	0x3dc401c1	0.09570647
140	0xbbbb9a94	-0.0057252143
141	0xbc8cdd54	-0.017195381
142	0xbf267dfd	-0.6503599
143	0xbea6adb5	-0.32554403
144	0x3da612ff	0.08109092
145	0xbe4a29b5	-0.19742472
146	0x3e755b8a	0.239607
147	0xbd70a779	-0.058753464
148	0xbe77ddb8	-0.24205673
149	0x3e5f13d3	0.21784906
150	0xbe14906a	-0.14508215
151	0xbdef2511	-0.11676992
152	0xbe847213	-0.25868282
153	0xbeec2165	-0.46119228
154	0xbdf99b21	-0.121877916
155	0xbe9a224e	-0.30104297
156	0xbb8ae2f3	-0.0042384802
157	0x3dab8476	0.08374874
158	0xbec46ced	-0.38364354
159	0xbf1bfb37	-0.609302
160	0xbefca336	-0.4934327
161	0xbe8f1d00	-0.27951813
162	0xbeb8a2bf	-0.36061665
163	0xbe92e3a0	-0.2868929
164	0xbdb33831	-0.08750952
165	0xbed13104	-0.40857708
166	0x3900ff1e	0.0001230207
167	0xbe92c544	-0.28666127
168	0xbd8ef4a6	-0.06980257
169	0xbe992baa	-0.29916126
170	0xbd5f1067	-0.054459002
171	0xbbc63cd1	-0.0060497303
172	0x3cca38e6	0.024685334
173	0xbe0e2a68	-0.13883364
174	0xbe502240	-0.20325565
175	0xbd802f09	-0.06258971
176	0xbf034483	-0.51276416
177	0xbd0af7ab	-0.0339276
178	0x3dc738b8	0.09727615
179	0x3d2c13ce	0.042011075
180	0xbebed8c1	-0.37274745
181	0xbeb0bbaf	-0.3451819
182	0xbd13a399	-0.03604469
183	0x3d7be2fd	0.06149577
184	0xbdf1d1ed	-0.11807618
185	0x3e183c0c	0.14866656
186	0xbec6272a	-0.38701755
187	0x3da0c88d	0.07850752
188	0x3dfde948	0.123980105
189	0xbe0bdcc8	-0.1365844
190	0xbe22d1dc	-0.15900367
191	0xbd18fc2b	-0.03734986
192	0x3e845c55	0.25851694
193	0xbd63bb8a	-0.055598773
194	0xbea3c88c	-0.31988943
195	0xbc2f21ae	-0.010689182
196	0xbe049f17	-0.12951313
197	0xbd46d99b	-0.04854737
198	0x3df11f1e	0.11773513
199	0xbe1c0c82	-0.15239146
200	0xbd83c313	-0.06433692
201	0xbc7e5b25	-0.01552466
202	0xbd68a0f0	-0.056794107
203	0xbe4b9624	-0.19881493
204	0xbe906fb3	-0.2821022
205	0x3df968de	0.12178205
206	0xbdeaa4d6	-0.11457221
207	0xbc3a88db	-0.011385168
208	0xbd9a3761	-0.07530094
209	0x3d0c0f46	0.034194253
210	0xbe0d7e65	-0.13817747
211	0xbeae09e5	-0.33991924
212	0xbe14c6e8	-0.14529002
213	0xbe3d4c15	-0.18486054
214	0xbde70caf	-0.11281716
215	0x3bc35501	0.005961061
216	0xbce5b390	-0.028039724
217	0x3c463f58	0.012100063
218	0xbe138333	-0.14405517
219	0x3def00c6	0.116700694
220	0x3da3f068	0.08004838
221	0x3d08a456	0.033359848
222	0x3d2d9a5d	0.04238354
223	0xbde25ba9	-0.11052639
224	0xbd0bfd46	-0.034177087
225	0x3d9550ba	0.07290788
226	0xbedc2ad6	-0.4300143
227	0xbd658ad4	-0.0560406
228	0xbe6760bd	-0.22595496
229	0x3bc31f5e	0.005954667
230	0xbea1458e	-0.3149838
231	0xbf090fc2	-0.5353967
232	0xbe015ddf	-0.12633465
233	0xbf035d86	-0.5131458
234	0xbdcc6d9f	-0.09981846
235	0x3e0a54bf	0.1350889
236	0xbec93044	-0.39294636
237	0x3e22b5ab	0.15889613
238	0xbd9b53d9	-0.07584352
239	0x3e8d9da4	0.27659333
240	0xbec84448	-0.39114594
241	0xbdcbc0fb	-0.099489175
242	0x3d95c43f	0.073128216
243	0x3e4831ef	0.19550298
244	0xbef6e177	-0.4821889
245	0x3e617b6f	0.22019742
246	0xbebbf99a	-0.36713868
247	0xbeab2ff3	-0.3343502
248	0xbb1ab5e2	-0.0023606946
249	0xbe3e15f1	-0.18563057
250	0xbe8a5914	-0.27021086
251	0xbd9bc779	-0.07606406
252	0xbe640e5b	-0.22271101
253	0xbc9b45c8	-0.018954173
254	0xbe2c03f4	-0.16798383
255	0xbdf48313	-0.11939063

fc3.bias f4 [10]
0	0xbecd9fb4	-0.40160906
1	0xbe9b2b38	-0.3030641
2	0xbbed3a41	-0.0072396104
3	0x3ee4e08a	0.4470256
4	0x3ebd4143	0.36963853
5	0xbc9c5a82	-0.019086126
6	0xbe2b0c18	-0.16703832
7	0xbcfdcbc7	-0.030980958
8	0x3e918517	0.28421852
9	0x3dd40ed8	0.10354394
