Models/myMNISTCNNModel.pt (torch_old, 241814 bytes, 10 tensors)

conv1.weight f4 [6, 1, 3, 3]
0	0x3edd1be9	0.43185356
1	0x3eade1c3	0.33961305
2	0xbe94eef6	-0.29088563
3	0x3e39bf9e	0.18139502
4	0x3d0d7b7a	0.034541585
5	0xbc513455	-0.012768825
6	0xbea91b9c	-0.33028877
7	0x3e2b888d	0.16751309
8	0x3ec292cb	0.3800262
9	0xbea4cb3f	-0.32186314
10	0x3ea60df6	0.32432526
11	0x3e99fad1	0.3007417
12	0x3e718bf8	0.2358855
13	0x3eaed8ad	0.34149686
14	0x3eb327cc	0.349913
15	0x3e09f035	0.13470538
16	0x3eb052aa	0.34438068
17	0xbcd39e66	-0.025832366
18	0x3e2f65b3	0.17128639
19	0xbda36d37	-0.079798155
20	0xbf3e31da	-0.7429482
21	0xbe48b86f	-0.19601606
22	0xbf52b137	-0.8230166
23	0x3e4aafbb	0.19793598
24	0xbf127073	-0.57202834
25	0x3e1215fd	0.142662
26	0x3e8785a0	0.26469135
27	0xbd8f5d73	-0.07000246
28	0xbe74e510	-0.23915505
29	0xbf3cd92f	-0.73768896
30	0x3e9724d1	0.29520276
31	0xbe87bc3f	-0.26510808
32	0x3e8970d2	0.26843888
33	0x3e950d65	0.29111782
34	0x3e8bd148	0.27308106
35	0x3ef9cf66	0.48791045
36	0xbdedbbe2	-0.116081014
37	0x3ea5832c	0.3232664
38	0xbd80e35f	-0.062933676
39	0xbe36ed23	-0.17863898
40	0x3e947662	0.2899657
41	0xbe9d3a41	-0.30708507
42	0x3d8eeaf2	0.06978406
43	0x3e40c299	0.18824233
44	0xbe668f66	-0.2251564
45	0x3e1faaaa	0.15592447
46	0x3ef54239	0.47902086
47	0x3ead599f	0.33857438
48	0x3e848173	0.25880012
49	0xbe43d700	-0.19124985
50	0xbeade1cd	-0.33961335
51	0xbed89650	-0.4230218
52	0xbefea1fb	-0.49732956
53	0x3e59eb09	0.21281065

conv1.bias f4 [6]
0	0x3a49cb04	0.0007697793
1	0xbe1c10dc	-0.15240806
2	0x3e81f76a	0.25384074
3	0xbc2d7b33	-0.010588455
4	0xbe54b54f	-0.20772289
5	0xbe04c6c1	-0.12966444

conv2.weight f4 [16, 6, 3, 3]
0	0x3e2432fd	0.16035075
1	0x3e17afaf	0.14813112
2	0x3e08d8e7	0.13363992
3	0x3daadb20	0.08342576
4	0x3d047328	0.032336384
5	0xbe6074ca	-0.21919551
6	0x3de60ec3	0.11233284
7	0xbecc141c	-0.39859092
8	0xbf1d7996	-0.6151365
9	0x3e840a4c	0.25789106
10	0x3e98d987	0.2985346
11	0xbe151ccc	-0.14561766
12	0x3e35768d	0.17721005
13	0xbea18879	-0.31549433
14	0xbe4af7ef	-0.19821142
15	0xbe9d8199	-0.30762938
16	0xbde5e04d	-0.112244226
17	0xbe2c230a	-0.16810241
18	0xbd9c2570	-0.07624328
19	0xbda35805	-0.07975773
20	0x39735ba4	0.00023208425
21	0xbe2b82ec	-0.16749161
22	0x3d8adfba	0.06780954
23	0xbdf4a99c	-0.11946413
24	0xbcf5c170	-0.029999465
25	0xbe57130e	-0.21003363
26	0xbd8c7af6	-0.068593904
27	0xbd9edbef	-0.07756793
28	0xbe27050a	-0.16310516
29	0x3dc3bffd	0.09558103
30	0xbdcde2ca	-0.10053022
31	0xbebe4577	-0.37162372
32	0xbdc4f554	-0.09617105
33	0x3e97a7ea	0.29620296
34	0xbe12884c	-0.14309806
35	0xbf0906ff	-0.535263
36	0x3e995d09	0.29953793
37	0x3df81df8	0.12115091
38	0xbe8e1c5e	-0.27756017
39	0xbdb8209e	-0.08990596
40	0xbe444f14	-0.19170791
41	0xbe9cc9a3	-0.30622587
42	0xbe858a24	-0.26081955
43	0xbe82bc90	-0.25534487
44	0xbead4830	-0.33844137
45	0x3dbe3eed	0.09289346
46	0x3ea9d0c6	0.33167094
47	0xbd924d72	-0.07143678
48	0x3d81bba5	0.063346185
49	0xbe90948b	-0.2823833
50	0xbe3753bb	-0.17903034
51	0xbe0f8e94	-0.14019233
52	0x3d64423c	0.05572723
53	0xbe12cc11	-0.14335658
54	0xbea2d360	-0.3180189
55	0xbda5c136	-0.08093493
56	0xbe18b4f6	-0.14912781
57	0xbeeacdbd	-0.4586009
58	0xbd5f96b7	-0.054587092
59	0xbd32fd78	-0.043698758
60	0xbe02d922	-0.12778142
61	0x3cc526ee	0.024066415
62	0x3d188834	0.03723927
63	0xbe979c50	-0.29611444
64	0xbe36e799	-0.17861785
65	0xbec166f7	-0.37773868
66	0xbed4a246	-0.41530055
67	0xbdae0575	-0.084971346
68	0x3e1fbd16	0.15599474
69	0x3c903d52	0.017607365
70	0x3e93468d	0.28764763
71	0x3e1f98f7	0.15585695
72	0xbe752327	-0.23939191
73	0xbd6891a6	-0.056779526
74	0xbd976852	-0.073929444
75	0xbd33c635	-0.043890197
76	0xbc9e3468	-0.019312099
77	0x3d2e016a	0.042481817
78	0x3eb59c8b	0.35470995
79	0x3d338155	0.043824513
80	0x3cd459a5	0.025921652
81	0xbf47db54	-0.78069043
82	0xbde11471	-0.10990227
83	0xbe64baf1	-0.22336937
84	0xbea1452c	-0.31498086
85	0x3e4e16d0	0.2012589
86	0x3eaef22d	0.3416914
87	0x3e68fadf	0.2275195
88	0x3e8e24b2	0.2776237
89	0xbcad78a7	-0.021175696
90	0xbdc318b1	-0.09526194
91	0xbeb76753	-0.35821018
92	0xbe9177f1	-0.2841182
93	0xbf0d11fb	-0.5510556
94	0xbe449d03	-0.1920052
95	0xbe04987e	-0.12948796
96	0x3d98f546	0.07468657
97	0x3e44fac0	0.19236279
98	0x3ce61ee3	0.0280909
99	0xbdea7ea7	-0.11449938
100	0x3ef3a631	0.4758773
101	0x3eb6669f	0.3562517
102	0xbe7853ac	-0.24250668
103	0xbe37ee88	-0.17962086
104	0xbb72e4a1	-0.0037062543
105	0xbe896300	-0.26833344
106	0xbe58dc3c	-0.21177763
107	0x3f24d508	0.6438756
108	0x3cffaea6	0.031211209
109	0xbececd10	-0.40390825
110	0xbef05bb2	-0.46944958
111	0x3dbdf592	0.092753544
112	0x3ea53f77	0.32274982
113	0xbe2ba3ff	-0.16761778
114	0xbe4ad386	-0.19807252
115	0x3e145d0e	0.14488623
116	0x3d9c559d	0.07633517
117	0xbe18a8dc	-0.14908165
118	0xbe503ca6	-0.20335636
119	0xbebdf657	-0.37102005
120	0x3d074770	0.033027112
121	0x3ded9cbc	0.1160216
122	0xbe0d0dff	-0.1377487
123	0xbdc53375	-0.09628955
124	0x3e0405a2	0.12892774
125	0x3d753f60	0.059874892
126	0x3dae5181	0.085116394
127	0x3e1253bc	0.14289755
128	0xbe0b5543	-0.13606744
129	0x3d4ad8c5	0.049523134
130	0xbe299c4e	-0.16563532
131	0xbe7ed83b	-0.24887173
132	0x3d99e20a	0.07513817
133	0xbe03fc81	-0.12889291
134	0xbe87bb71	-0.26510194
135	0x3e9518c5	0.2912046
136	0x3e0fa55e	0.14027926
137	0xbf0fea63	-0.5621702
138	0x3db9c109	0.09070022
139	0x3e63ffba	0.2226552
140	0xbdfdbf20	-0.1238997
141	0xbe16dbfe	-0.14732358
142	0x3e1937ec	0.14962739
143	0x3ea2e6eb	0.318168
144	0xbded36b0	-0.115826964
145	0xbed9ea87	-0.42561743
146	0xbe96d3dd	-0.29458514
147	0xbdb13b09	-0.08653838
148	0x3de2d3af	0.11075532
149	0xbd02d67f	-0.03194284
150	0x3d963384	0.073340446
151	0x3e833819	0.25628737
152	0x3cb9f634	0.022700407
153	0xbe16c00e	-0.147217
154	0x3e41ab5f	0.18913029
155	0x3e602d43	0.21892266
156	0x3ed452aa	0.41469318
157	0xbea97c8c	-0.33102834
158	0xbec5ef34	-0.3865906
159	0x3e09b214	0.13446838
160	0xbdc5f8ef	-0.09666621
161	0xbebc5780	-0.36785507
162	0xbe06710e	-0.13129064
163	0xbd880aba	-0.06642671
164	0xbe1fbcbf	-0.15599345
165	0x3e2de846	0.16983137
166	0x3e6260a1	0.22107174
167	0x3c5318b3	0.012884307
168	0xbe99718a	-0.29969436
169	0xbe9c3c7d	-0.305149
170	0xbee383bc	-0.44436443
171	0x3dafff30	0.08593595
172	0x3dde52b9	0.10855622
173	0x3e48396c	0.19553155
174	0x3daa4ae0	0.083150625
175	0x3dbd6462	0.09247662
176	0xbe3e1021	-0.1856084
177	0xbed2a94d	-0.4114479
178	0xbeda5c97	-0.42648765
179	0xbf2b0d05	-0.6681674
180	0xbb5e3b8a	-0.003391
181	0xbe52860a	-0.20558944
182	0xbce4bc38	-0.027921781
183	0xbe2c4160	-0.16821814
184	0xbd96d020	-0.073639154
185	0xbd385b4c	-0.045008942
186	0xbd435a34	-0.047693446
187	0x3e13f334	0.14448243
188	0x3dde9852	0.108688965
189	0x3eaaa173	0.333263
190	0x3d536e73	0.051619004
191	0xbe0549b3	-0.13016395
192	0x3d4ac99d	0.04950868
193	0xbd9976bb	-0.07493349
194	0xbea3ba98	-0.31978297
195	0xbdfeb71a	-0.124372676
196	0xbe55913c	-0.20856184
197	0xbe8befa3	-0.27331266
198	0x3cab55b6	0.020914894
199	0x3e4a553c	0.19759077
200	0x3e4348dc	0.19070762
201	0xbe391bc2	-0.18076995
202	0x3c08696d	0.008325917
203	0xbe3707b2	-0.1787403
204	0xbe785fad	-0.24255247
205	0xbe8f9474	-0.28042948
206	0xbec62e5d	-0.38707247
207	0x3d283663	0.041067492
208	0xbdcaf55b	-0.09910079
209	0xbda827c9	-0.082107134
210	0x3ebd4739	0.369684
211	0x3e013b89	0.12620367
212	0x3e4debce	0.20109484
213	0x3e1cbc97	0.15306316
214	0x3e4b6295	0.19861825
215	0xbdf5d7ac	-0.12004027
216	0x3d32e86f	0.043678697
217	0x3e632b26	0.22184429
218	0x3e30940e	0.17243978
219	0xbe485c49	-0.19566454
220	0x3df7e371	0.12103928
221	0xbceebe0b	-0.029143354
222	0xbeade26f	-0.33961818
223	0xbed12f8b	-0.40856585
224	0xbec29792	-0.38006264
225	0x3d4a7600	0.04942894
226	0xbc4b7903	-0.012418988
227	0x3e9fde2a	0.31224185
228	0xbd84951b	-0.06473752
229	0x3dc891a6	0.09793405
230	0x3ded2cf5	0.115808405
231	0xbea5c286	-0.32374972
232	0xbedf61c6	-0.43629283
233	0xbf0f0a32	-0.5587493
234	0xbe49b2d1	-0.1969712
235	0xbda272ee	-0.07932077
236	0x3e362231	0.1778648
237	0xbd9954b1	-0.07486857
238	0xbe496f6b	-0.19671409
239	0xbda7fad9	-0.08202142
240	0x3d42dfa9	0.04757658
241	0x3cda0bf6	0.026617032
242	0x3e82d206	0.2555086
243	0x3c75f6f0	0.015012488
244	0x3dee3c79	0.11632628
245	0x3e9cad4b	0.30600962
246	0xbf25607a	-0.64600337
247	0xbde8d4ef	-0.11368739
248	0xbe918308	-0.2842028
249	0x3e5da434	0.2164467
250	0x3ec0d8e1	0.37665465
251	0x3e4aacd6	0.19792494
252	0xbe1ac1a3	-0.15112929
253	0x3da9dd3f	0.082941525
254	0x3dcd436b	0.100226246
255	0xbe86b2ad	-0.26308194

conv2.bias f4 [16]
0	0x3ce1c82d	0.027561272
1	0xbe566fa0	-0.20941019
2	0x3c0b07a3	0.008485707
3	0x3c0ab74c	0.008466553
4	0xbdaed7fb	-0.08537289
5	0xbd0ef3fc	-0.03490065
6	0x3daa3339	0.08310551
7	0xbdf01895	-0.11723439
8	0xbe17c509	-0.14821257
9	0xbe6b618a	-0.22986427
10	0xbd8c2a5a	-0.068440154
11	0xbe339719	-0.17538108
12	0xbe470c25	-0.19438227
13	0xbd078639	-0.03308699
14	0xbcf3f5bc	-0.029780261
15	0xbdad8c23	-0.084739946

fc1.weight f4 [120, 400]
0	0xbd872989	-0.06599719
1	0xbda17988	-0.07884508
2	0x3e8287f4	0.2549435
3	0x3ecfa193	0.4055296
4	0x3e2e0a78	0.16996181
5	0x3e2d08ed	0.16897936
6	0xbc8ce0b7	-0.017196996
7	0xbe9aee88	-0.3026011
8	0x3e6aea04	0.22940832
9	0x3ed40cee	0.41416115
10	0x3e275551	0.1634114
11	0xbe8b831c	-0.27248466
12	0xbd15797a	-0.036492802
13	0x3e3676e0	0.17818785
14	0x3d85be56	0.06530444
15	0xbde1dd0c	-0.110284895
16	0xbe58a05a	-0.2115492
17	0xbc7d7389	-0.01546944
18	0xbef004bb	-0.4687861
19	0xbe890925	-0.2676479
20	0x3d348bc2	0.044078596
21	0xbd7738ae	-0.06035679
22	0xbe3728a6	-0.178866
23	0x3e7cea9c	0.24698871
24	0x3e39151c	0.18074459
25	0x3d191535	0.03737374
26	0xbd14b9aa	-0.036309876
27	0xbdf95d86	-0.12176041
28	0x3d189f36	0.03726121
29	0x3d4f3f1d	0.0505973
30	0xbe886fe2	-0.2664786
31	0xbe17d8da	-0.14828816
32	0xbc03058e	-0.00799693
33	0x3df66923	0.12031772
34	0x3d967b84	0.073477775
35	0xbd17bb5f	-0.037043925
36	0x3d6225f3	0.055211972
37	0xbda3d4cd	-0.07999573
38	0xbe6868c9	-0.22696222
39	0xbd86bab6	-0.06578581
40	0x3e30a371	0.17249848
41	0x3d146da1	0.036237363
42	0xbd97650a	-0.073923185
43	0xbd631b2d	-0.05544584
44	0xbc932530	-0.017962068
45	0xbdcd6080	-0.100281715
46	0x3e77129b	0.24128191
47	0x3e9de2d8	0.3083713
48	0x3dd7bb09	0.10533721
49	0x3e25a492	0.1617606
50	0xbcb288c8	-0.021793738
51	0x3d9e6e2c	0.07735857
52	0xbde78e51	-0.113064416
53	0xbe5690fc	-0.20953745
54	0x3c9a340c	0.018823646
55	0xbe3537ff	-0.17697142
56	0xbe0cd1b9	-0.13751878
57	0xbe83cffc	-0.25744617
58	0xbe328060	-0.17431784
59	0xbe52b316	-0.20576128
60	0x3e905b1a	0.28194505
61	0xbd9ae844	-0.075638324
62	0xbcb12c17	-0.021627469
63	0x3e813664	0.2523681
64	0x3e8fcd64	0.28086388
65	0x3e936941	0.2879124
66	0x3dc251c8	0.09488255
67	0x3e3ba112	0.18323162
68	0x3e9166c9	0.2839873
69	0x3d49e69e	0.0492922
70	0x3c588b68	0.013216831
71	0x3dd56929	0.10420448
72	0x3e29bfb3	0.16577034
73	0xbe34a836	-0.17642292
74	0xbed3d770	-0.41375303
75	0x3d9d12d3	0.07669606
76	0x3d607d2e	0.05480688
77	0x3e74902f	0.23883127
78	0x3e3ae422	0.18251088
79	0x3ea0e602	0.31425482
80	0x3d97399e	0.073840365
81	0xbd9c45a0	-0.076304674
82	0xbe88a673	-0.2668949
83	0x3bb11061	0.005403564
84	0x3eec1fef	0.46118113
85	0xbcfae527	-0.030626846
86	0xbd70bfcd	-0.058776665
87	0x3d944a07	0.07240682
88	0x3dc4489e	0.09584163
89	0xbde2db94	-0.110770375
90	0xbdf349a7	-0.118792824
91	0xbda683a1	-0.08130575
92	0x3d198fe7	0.03749075
93	0xbe5736b9	-0.21016969
94	0xbec68f6f	-0.38781306
95	0x3cc51a8d	0.024060512
96	0xbda5bdba	-0.08092828
97	0xbc8887ff	-0.01666641
98	0x3e3ca75b	0.18423216
99	0x3dbf787e	0.09349154
100	0xbd49c8f6	-0.049263917
101	0x3de00e40	0.10940218
102	0x3d503b66	0.050837897
103	0x3dbab993	0.09117427
104	0x3e3d7400	0.18501282
105	0x3e273c21	0.16331531
106	0x3e2f60d8	0.17126787
107	0xbe7c880d	-0.24661274
108	0x3d51ffeb	0.051269453
109	0x3e9432d4	0.2894503
110	0x3d8e9fb4	0.06964055
111	0x3d95fad1	0.0732323
112	0xbc679a5f	-0.014135926
113	0x3e09fb8f	0.13474868
114	0x3ed12d11	0.40854695
115	0xbde37f7f	-0.11108302
116	0x3da8ac4b	0.08235987
117	0x3d46e8b3	0.048561763
118	0xbde8ac75	-0.113610186
119	0xbe54d4e4	-0.20784336
120	0x3c923da4	0.017851658
121	0x3db404cb	0.08789977
122	0xbcf45791	-0.029826911
123	0x3c67468f	0.014115944
124	0xbebdd2fb	-0.37075028
125	0xbe18e768	-0.14932024
126	0xbc58a1c3	-0.013222161
127	0x3e1ade24	0.15123802
128	0x3d81cffc	0.06338498
129	0x3d73ba3e	0.059503786
130	0xbce3d95b	-0.027813604
131	0x3e04c51f	0.1296582
132	0x3de1d514	0.110269696
133	0x3e5a64ec	0.21327561
134	0x3e859a31	0.260942
135	0x3e79a9b0	0.24381137
136	0x3e262347	0.16224395
137	0xbe11213b	-0.14172833
138	0x3ea47656	0.32121533
139	0x3eb142f3	0.3462139
140	0x3e4deacb	0.20109098
141	0x3e830515	0.25589815
142	0x3dde8e86	0.10867028
143	0x3d1cbeb2	0.0382678
144	0xbecc73ce	-0.39932102
145	0x3e8034d5	0.25040308
146	0x3d8c2f03	0.06844904
147	0xbaf1a178	-0.0018434962
148	0xbd4376d1	-0.047720734
149	0xbeb13e6d	-0.3461794
150	0x3da96424	0.082710534
151	0x3e9fe9e6	0.31233138
152	0xbcd5541e	-0.026041087
153	0x3c1daeff	0.009624242
154	0x3dc22d5f	0.0948131
155	0xbd129626	-0.035787724
156	0x3da08ffa	0.07839961
157	0xbdc5c43f	-0.096565716
158	0xbdcb1823	-0.09916713
159	0x3d3fcae8	0.046824366
160	0xbd010386	-0.0314975
161	0xbcfa842e	-0.030580606
162	0x3b01e0c4	0.0019817809
163	0x3e8391b1	0.2569709
164	0x3e24b134	0.16083223
165	0x3e03e086	0.12878618
166	0xbdda5d61	-0.10662342
167	0xbdbd5034	-0.09243813
168	0xbdf9b9d0	-0.12193644
169	0xbdec490b	-0.11537369
170	0xbd4d62e5	-0.05014314
171	0x3d475c43	0.048671972
172	0xbd8de53b	-0.06928488
173	0xbe45ff67	-0.1933571
174	0xbeabc194	-0.33546126
175	0xbceeb1cb	-0.029137513
176	0x3e0fa6bc	0.14028448
177	0x3e31c1f4	0.17359143
178	0xbdeaff42	-0.11474468
179	0x3dcd0ea1	0.10012556
180	0x3cc10585	0.023562202
181	0xbe0a2719	-0.13491477
182	0x3d0eab91	0.034831587
183	0xbd66f40b	-0.05638508
184	0xbd7ad942	-0.06124235
185	0x3d10a2ed	0.035311628
186	0xbeb6ed44	-0.35727894
187	0x3c8a059a	0.016848374
188	0x3d783925	0.060601372
189	0x3cf4ae29	0.029868202
190	0xbd7f71f1	-0.062364522
191	0xbe548589	-0.20754065
192	0xbdac92ba	-0.08426423
193	0xbe4559e4	-0.19272572
194	0x3e2f37d5	0.17111142
195	0xbdd8508c	-0.10562238
196	0xbe19c8df	-0.15018032
197	0xbdd75c61	-0.10515667
198	0x3bbe9fca	0.005817388
199	0x3cd74b35	0.026280979
200	0x3e36b860	0.17843771
201	0x3e105c31	0.14097668
202	0xbd12b56d	-0.035817552
203	0x3e1bdb0a	0.15220276
204	0x3de47483	0.11155035
205	0x3d3b831f	0.045779344
206	0x3d6311be	0.055436842
207	0x3d2d05ef	0.042241987
208	0x3e1f8b2c	0.15580434
209	0x3e810163	0.2519637
210	0xbcf0465e	-0.029330429
211	0xbd44345f	-0.047901507
212	0x3ce99ae3	0.028516239
213	0x3dd51078	0.10403532
214	0xbd7d43b8	-0.06183216
215	0xbd46665c	-0.04843746
216	0xbe7d4a2a	-0.24735323
217	0xbe310411	-0.17286707
218	0xbe68a034	-0.22717363
219	0xbe9e889b	-0.30963597
220	0xbe70cd0e	-0.23515722
221	0xbd99ef44	-0.075163394
222	0x3d181efd	0.037138928
223	0x3dbb50db	0.09146281
224	0xbdc3ef2e	-0.09567104
225	0x3ecac682	0.39604574
226	0x3e303634	0.17208177
227	0x3c8817af	0.016612856
228	0x3e77e6e9	0.24209179
229	0x3df2bd9d	0.11852572
230	0xbd889fa2	-0.066710725
231	0xbe7a1dba	-0.24425402
232	0xbd050532	-0.032475658
233	0x3d8bf480	0.06833744
234	0x3da311a1	0.07962347
235	0xbe2ad24d	-0.16681786
236	0xbc5a8de8	-0.013339497
237	0x3e5a6b65	0.2133003
238	0xbce406d9	-0.027835296
239	0xbea47d29	-0.3212674
240	0x3a8ca40b	0.0010730041
241	0x3c4e114d	0.012577367
242	0x3d72fc61	0.05932272
243	0x3d9ab06b	0.0755318
244	0x3c73f931	0.014890955
245	0xbb2ddfd0	-0.0026531108
246	0x3e215b4f	0.15757488
247	0x3e8bed90	0.27329683
248	0x3e6acf7d	0.22930713
249	0x3e6fcc42	0.23417762
250	0x3d31acba	0.043377616
251	0x3dc9a677	0.09846204
252	0x3da6c5cb	0.08143195
253	0x3c8f4d26	0.017492842
254	0x3d714501	0.058903698
255	0x3d013ec2	0.03155399

fc1.bias f4 [120]
0	0xbca8007d	-0.020508045
1	0x3d02e273	0.03195424
2	0xbd5a0e2a	-0.053236164
3	0xbd820609	-0.06348807
4	0xbc0e8e5c	-0.008700933
5	0x3c80020e	0.01562598
6	0x3d1f2657	0.038854923
7	0xbe06a3b2	-0.13148382
8	0xbcb9bf08	-0.022674099
9	0x3d8c602a	0.06854279
10	0xbd7ab79e	-0.061210267
11	0xbcd3c56e	-0.025850978
12	0xbdf45b5f	-0.1193149
13	0xbc9b59ed	-0.018963778
14	0x3d0bdd94	0.03414686
15	0x3c7dd974	0.015493739
16	0xbccd280d	-0.025043512
17	0x3c64a67f	0.013955711
18	0x3d7d20a8	0.06179872
19	0x3ce2f867	0.027706338
20	0xbe00909d	-0.12555166
21	0xbe2a2f01	-0.16619493
22	0xbd42e5de	-0.0475825
23	0xbe00b40a	-0.1256868
24	0xbdcb6656	-0.099316284
25	0x3e45ca5b	0.19315474
26	0xbc6a8a60	-0.014315218
27	0xbbc8114e	-0.0061055785
28	0x3c92fc09	0.017942445
29	0x3d162e11	0.036665026
30	0x3bba05f6	0.00567698
31	0xbd87ffcf	-0.066405885
32	0xbd8a18c9	-0.06743009
33	0xbd170cf8	-0.036877602
34	0xbd46f010	-0.048568785
35	0xbb92f3fa	-0.0044846507
36	0xbd9cb967	-0.0765255
37	0xbde2d13e	-0.11075066
38	0x3d7a443f	0.06110024
39	0xbb8aecfb	-0.004239676
40	0xbcdbf1c7	-0.026848687
41	0xbc16d001	-0.009204865
42	0x3df572e7	0.119848065
43	0xbcc14387	-0.02359177
44	0xbc170c57	-0.009219251
45	0xbc7dae7e	-0.015483497
46	0x3be79898	0.007067751
47	0xbcd85053	-0.02640549
48	0xbd7cf779	-0.061759446
49	0xbd6aef87	-0.057357337
50	0xbdf2270a	-0.11823852
51	0xbd989bfb	-0.07451626
52	0x3d5a2300	0.053256035
53	0xba9a4109	-0.001176865
54	0xbdc56ff4	-0.09640494
55	0xbd8ee7f8	-0.06977838
56	0xbdd8041a	-0.10547657
57	0xbd13a16d	-0.03604262
58	0xbe1bf459	-0.1522993
59	0xbda71cf9	-0.08159823
60	0xbc33e0d7	-0.010978899
61	0x3d01ce2e	0.03169077
62	0x3dc3c9ce	0.095599756
63	0x3daf8257	0.08569782
64	0x3db936f3	0.09043684
65	0x3bea01d4	0.007141331
66	0xbda2e849	-0.07954461
67	0xbd1ff33c	-0.039050326
68	0x3dfe05ba	0.12403436
69	0xbcedc1f8	-0.029023156
70	0xbb869521	-0.004107133
71	0xbe199153	-0.14996843
72	0xbda4abc4	-0.08040574
73	0x3d94c129	0.07263405
74	0x3aa7ac57	0.001279245
75	0x3d909a72	0.07060708
76	0xbd4d13a5	-0.050067563
77	0xbd8caba7	-0.068686776
78	0xbc619ba1	-0.013770015
79	0x3d13c42a	0.03607575
80	0xbcba8afe	-0.022771355
81	0x3d2178e8	0.039421946
82	0xbd989164	-0.07449606
83	0x3dcb1670	0.09916389
84	0xbd5173df	-0.051135894
85	0xbd0d6bcb	-0.034526628
86	0xbcbc3163	-0.022972768
87	0x3d0b7da9	0.034055386
88	0x3dab74f6	0.08371918
89	0x3dbd440a	0.09241493
90	0xbc383286	-0.0112425145
91	0x3cc1f0ec	0.02367445
92	0xbd30d153	-0.043168377
93	0xbd3ad9d1	-0.045617882
94	0x3d71ce65	0.059034724
95	0xbd99433f	-0.07483529
96	0xbdfaa3fe	-0.1223831
97	0x3cd9239e	0.026506241
98	0xbdb5580e	-0.08854686
99	0xbd97a01a	-0.07403584
100	0xbe02ba89	-0.1276647
101	0xbdc09835	-0.09404031
102	0x3ddcf906	0.10789685
103	0xbd93ba4d	-0.072132684
104	0x3cb0a8cb	0.021564862
105	0xbb678770	-0.003532853
106	0xbd1d1810	-0.038353026
107	0xbe1320c4	-0.14367968
108	0xbd24d29a	-0.040239908
109	0xbc648e95	-0.01395001
110	0x3e3c1aa8	0.18369544
111	0xbd984968	-0.07435876
112	0xbd4ea4d5	-0.050450165
113	0xbd910063	-0.07080152
114	0x3cf79a16	0.030224841
115	0xbda0ba58	-0.07848042
116	0x3da2c1da	0.079471305
117	0x3d3020cf	0.04300004
118	0xbd289390	-0.04115635
119	0xbd83b111	-0.06430257

fc2.weight f4 [84, 120]
0	0xbddb1d68	-0.10698968
1	0x3df8257d	0.12116525
2	0x3d6d7388	0.057971507
3	0x3d79e2b6	0.061007224
4	0x3c1a3651	0.009412364
5	0x3d77746c	0.060413763
6	0x3d815bf7	0.06316369
7	0x3ced8cee	0.028997865
8	0xbd1e02c3	-0.038576853
9	0x3e2d4cdf	0.16923855
10	0x3e2e686e	0.17032024
11	0xbd32d02f	-0.04365557
12	0x3e3a3ad2	0.181865
13	0xbe14986a	-0.14511266
14	0xbdaa2617	-0.08308046
15	0x3e3b4b6a	0.18290487
16	0x3d8e3c94	0.06945148
17	0xbe5bde64	-0.21471554
18	0xbd89c2e3	-0.06726625
19	0xbd189667	-0.03725281
20	0xbdc161b3	-0.09442463
21	0x3e002ad8	0.12516344
22	0xbd180040	-0.037109613
23	0xbd3ff107	-0.04686072
24	0xbda1a238	-0.07892269
25	0xbdab238f	-0.08356392
26	0xbda8fafd	-0.08250997
27	0xbe455f7e	-0.19274709
28	0xbe494102	-0.19653705
29	0x3e1a6a08	0.1507951
30	0x3c966182	0.018357042
31	0x3e4b0c3e	0.19828889
32	0x3e03523e	0.12824342
33	0x3b73014d	0.0037079633
34	0xbd3644f4	-0.044499353
35	0x3d9a6a78	0.075398386
36	0xbe206b05	-0.15665825
37	0x3cc92245	0.024552474
38	0x3c77517a	0.015095109
39	0xbc703dcc	-0.014663171
40	0x3dcff739	0.10154576
41	0xbc5ae5e8	-0.013360478
42	0x3dc933fe	0.0982437
43	0xbd687d4b	-0.056760114
44	0xbbc8e8bc	-0.0061312597
45	0x3d3a96c7	0.04555395
46	0xbde1ca37	-0.110248975
47	0xbc1fb475	-0.009747614
48	0xbac1552b	-0.0014750113
49	0x3d4e99e9	0.05043975
50	0x3d9394ee	0.072061405
51	0x3d47ad98	0.048749536
52	0xbd4d2c15	-0.050090868
53	0x3db17952	0.08665718
54	0x3e90558c	0.28190267
55	0xbe1fea18	-0.15616643
56	0xbd9b507f	-0.07583713
57	0xbe752c0b	-0.23942582
58	0x3dc3d08b	0.09561261
59	0x3d882dac	0.06649336
60	0xbe04ffc2	-0.12988189
61	0xbe8f6972	-0.28010136
62	0x3d2c9f62	0.042144187
63	0xbd534be0	-0.051586032
64	0xbe274453	-0.16334657
65	0xbe1f7f42	-0.15575889
66	0xbd53b833	-0.051689338
67	0x3d20367f	0.03911447
68	0x3d20aa83	0.039225113
69	0xbd217843	-0.03942133
70	0x3b023287	0.0019866542
71	0x3d120fd2	0.03565962
72	0x3ca9337a	0.020654429
73	0x3ccdfe1d	0.025145585
74	0x3d9bacb8	0.07601303
75	0xbe343453	-0.17598085
76	0xbd36e346	-0.04465034
77	0x3d7cff58	0.061766952
78	0xbd645605	-0.055746097
79	0xbba664bd	-0.005077927
80	0xbdbfdb53	-0.09368005
81	0x3d902043	0.070374034
82	0xbd3f47ce	-0.046699338
83	0x3e93594f	0.28779075
84	0x3d7a5651	0.061117474
85	0xbb8d3a37	-0.0043099183
86	0x3da9a47f	0.08283328
87	0xbdf27826	-0.11839323
88	0x3dc11bf9	0.094291635
89	0x3e5a1153	0.21295671
90	0xbe071a76	-0.13193688
91	0xbe8baecb	-0.27281794
92	0xbe614f2b	-0.22002856
93	0x3c799d00	0.015235186
94	0x3e3fc27f	0.18726538
95	0x3c7f9e6e	0.015601737
96	0x3df5eb9d	0.1200783
97	0xbd4a5698	-0.04939899
98	0xbe48f57d	-0.19624896
99	0x3dea2f48	0.114347994
100	0xbe969e62	-0.29417711
101	0xbe0a2f5b	-0.13494627
102	0x3c828a54	0.0159351
103	0x3bd9c3d7	0.0066456604
104	0xb8b45f70	-8.6008455e-05
105	0x3b8e3ad0	0.004340507
106	0x3e231720	0.1592679
107	0xbce95f40	-0.028487802
108	0xbd8b2b82	-0.06795408
109	0xbd850796	-0.064955875
110	0xbd2c91d4	-0.04213126
111	0xbc882f66	-0.016624164
112	0xbd223e00	-0.03960991
113	0xbd9e7b65	-0.077383794
114	0x3c8efbe7	0.0174541
115	0xbc280450	-0.010254934
116	0x3dc46ceb	0.09591087
117	0x3eb25294	0.34828627
118	0x3ddac552	0.10682167
119	0x3d825fce	0.063659295
120	0x3e89b6d2	0.26897293
121	0xbe606222	-0.21912435
122	0xbe2b5b54	-0.16734058
123	0xbd2a8477	-0.041630235
124	0x3dca41e3	0.09875848
125	0x3d15461b	0.03644381
126	0xbe637a82	-0.22214702
127	0xbbadbc69	-0.0053020013
128	0x3d23b14f	0.039964017
129	0x3d160758	0.036628097
130	0x3c5acf44	0.01335508
131	0xbf187fb6	-0.5956987
132	0x3db1d096	0.08682363
133	0x393778e1	0.00017497271
134	0xbe40debd	-0.18834968
135	0xbeccb8b7	-0.39984676
136	0x3cbe9706	0.023265373
137	0x3d943b53	0.07237878
138	0x3e463311	0.19355418
139	0x3d24adbe	0.040204756
140	0x3dfbc469	0.12293322
141	0x3e280072	0.1640642
142	0x3dbf0f9e	0.093291506
143	0x3e1f1c3b	0.15538113
144	0x3e3e3744	0.1857577
145	0xbde892dd	-0.11356137
146	0x3dd635a5	0.10459451
147	0xbdf542fc	-0.11975667
148	0xbea24150	-0.31690454
149	0x3dd6113c	0.10452506
150	0xbe0d542b	-0.13801639
151	0xbd40e88b	-0.04709677
152	0xbc2b26d9	-0.010446274
153	0xbd2d8d0e	-0.04237085
154	0x3dacca09	0.08436973
155	0xbbd64245	-0.0065386617
156	0xbec3e8b8	-0.38263488
157	0x3e0599ab	0.13046901
158	0xbe519000	-0.20465088
159	0xbd0af8a4	-0.03392853
160	0xbbd57aa2	-0.006514863
161	0xbd712154	-0.058869675
162	0xbe30791a	-0.17233697
163	0x3d6f1a2a	0.05837456
164	0xbddff927	-0.10936194
165	0xbd6f8417	-0.05847558
166	0x3c60a67a	0.013711566
167	0x3ce933ed	0.028467143
168	0x3d1ad6e2	0.037802584
169	0xbdba681b	-0.09101888
170	0x3d9bab35	0.076010145
171	0xbe845a34	-0.2585007
172	0x3e1370b4	0.14398462
173	0xbe7f1d1e	-0.24913451
174	0x3e182f72	0.14861849
175	0x3eadf84e	0.33978504
176	0xbbf48ae6	-0.007462847
177	0x3e746691	0.23867251
178	0x3e0eaca7	0.13933049
179	0xbdbd823f	-0.09253358
180	0x3ddbc904	0.107317
181	0x3e0cd8ef	0.13754629
182	0xbc93c850	-0.018039852
183	0x3d8bb145	0.06820921
184	0x39f11d85	0.00045989096
185	0x3d751f83	0.059844505
186	0x3d0b9c01	0.034084324
187	0xbd8df3b6	-0.0693125
188	0xbde14ff2	-0.110015765
189	0x3d078589	0.033086333
190	0xbcbe45ee	-0.023226704
191	0x3d74affe	0.05973815
192	0xbd8a62e3	-0.067571424
193	0x3d06a642	0.0328734
194	0xbbf2219b	-0.00738926
195	0xbddbc027	-0.107300095
196	0x3dd2ad85	0.102870025
197	0xbd45cbc0	-0.048290014
198	0x3ca927a1	0.02064878
199	0xbcb44651	-0.022006186
200	0x3e47365a	0.19454327
201	0x3e0b1f58	0.13586175
202	0xbd86db19	-0.06584758
203	0xbdb77e35	-0.08959619
204	0xbc770af6	-0.015078297
205	0xbe1b072d	-0.15139456
206	0x3e3e186d	0.18564005
207	0xbe06e8c6	-0.13174734
208	0x3e28a47e	0.16468999
209	0xbe1927dd	-0.14956613
210	0x3bffbd20	0.007804528
211	0x3e8c031e	0.27346128
212	0xbd30b18d	-0.043138076
213	0xbc823984	-0.015896566
214	0xbeb7d264	-0.35902703
215	0x3ca4d9d7	0.020123405
216	0xbc681df1	-0.014167295
217	0xbe902c8e	-0.28158993
218	0x3e4f1da6	0.20226154
219	0xbdf0f803	-0.117660545
220	0x3e1088f3	0.14114742
221	0x3dfa26a5	0.12214402
222	0xbe8af460	-0.27139568
223	0x3c241300	0.010014296
224	0x3c1d71da	0.009609664
225	0xbd395d0c	-0.045254752
226	0xbeab23bc	-0.334257
227	0x3ba0f12d	0.004911563
228	0x3de90e14	0.11379638
229	0x3d6a6a36	0.057230197
230	0xbe16101d	-0.14654584
231	0x3db52d6e	0.08846556
232	0xbc1cdbd7	-0.009573898
233	0x3e13fcc0	0.14451885
234	0xbc0336bc	-0.008008655
235	0xb9c0aeef	-0.0003675143
236	0x3dc973ed	0.09836564
237	0xbcc22fa2	-0.023704354
238	0x3e1b8ba0	0.15189981
239	0xbc4b3055	-0.01240166
240	0xbdf6fdfc	-0.120601624
241	0x3db8a91f	0.09016632
242	0xbe6d09da	-0.2314829
243	0x3cd01bea	0.025403935
244	0xbe506cb1	-0.20353962
245	0x3db116f8	0.08646959
246	0x3e7bcce9	0.24589886
247	0xbe188852	-0.14895752
248	0xbd2261aa	-0.03964392
249	0xbd373704	-0.0447302
250	0xbde82683	-0.113354705
251	0xbec1fb50	-0.3788705
252	0x3d866968	0.065630734
253	0x3cdca39a	0.02693348
254	0x3e6030e9	0.21893658
255	0xbe76675c	-0.24062866

fc2.bias f4 [84]
0	0xbdae53b6	-0.0851206
1	0x3e11449c	0.14186329
2	0x3c211163	0.0098308055
3	0x3d795543	0.060872328
4	0x3d36c957	0.044625606
5	0xbd738b01	-0.059458736
6	0xbe43b014	-0.19110137
7	0x3e1e76dd	0.1547503
8	0x3dfebcc5	0.12438349
9	0x3d71a441	0.058994535
10	0xbd81df21	-0.063413866
11	0x3d5335bd	0.05156492
12	0x3e32c9a1	0.17459728
13	0x3e3e4979	0.18582715
14	0x3cb7be46	0.022429597
15	0x3dcf9bdc	0.1013715
16	0x3d67c251	0.0565818
17	0x3d8cfac8	0.0688377
18	0xbe4092a6	-0.18805942
19	0x3cc20995	0.02368621
20	0x3cebd174	0.028786398
21	0xbadfc071	-0.0017070902
22	0xbe64cb5a	-0.22343197
23	0x3d26aaf2	0.04069037
24	0xbe26f947	-0.1630603
25	0xbdf6f945	-0.12059263
26	0x3d87bb81	0.066275604
27	0x3e981364	0.29702294
28	0xbd811d77	-0.06304448
29	0xbe3447e9	-0.17605557
30	0x3e35102f	0.17681955
31	0x3e1831a8	0.14862692
32	0x3deac57a	0.11463447
33	0x3cb35926	0.021893095
34	0x3dc6b92e	0.09703289
35	0x3db520d3	0.08844151
36	0xbdefa026	-0.11700468
37	0x3d54f206	0.051988624
38	0xbdb350aa	-0.0875562
39	0xbde7a9dc	-0.11311695
40	0x3c4966aa	0.012292543
41	0xbd90af86	-0.070647284
42	0x3da5150b	0.08060654
43	0x3d8a17f0	0.06742847
44	0x3d1c58f4	0.03817077
45	0x3e1d65ab	0.15370815
46	0x3d9afec0	0.07568121
47	0x3d05fe8a	0.03271345
48	0x3d87412b	0.06604227
49	0xbcfbb681	-0.030726673
50	0xbe0f17b1	-0.13973881
51	0x3e00c616	0.12575564
52	0xbda071b8	-0.0783419
53	0x3c44f7d3	0.0120219765
54	0x3ea07164	0.3133651
55	0xbdd3d891	-0.10344041
56	0xbe0dfd93	-0.13866262
57	0xbe105f0d	-0.14098759
58	0xbe339f03	-0.17541127
59	0xbe17cb57	-0.14823662
60	0x3d9298b7	0.07158034
61	0xbdecd343	-0.115637325
62	0xbbd3b516	-0.006460796
63	0xbe72ae09	-0.23699202
64	0xbdd4bb9f	-0.103873484
65	0xbe07983b	-0.13241665
66	0x3b31700d	0.0027074844
67	0xbe0edc8f	-0.13951324
68	0xbd032bb5	-0.032024104
69	0xba72b854	-0.00092590344
70	0xbe064e22	-0.13115743
71	0x3e674255	0.22583897
72	0xbb75a814	-0.0037484216
73	0x3d232aa1	0.039835576
74	0x3dbcde51	0.09222091
75	0x3e0b44a3	0.13600402
76	0x3d2fd945	0.042931814
77	0xbced0ac7	-0.028935803
78	0x3d6662d7	0.056246605
79	0xbd3c47f0	-0.045967042
80	0xbe0f858b	-0.14015786
81	0xbb4f660f	-0.0031646525
82	0x3d08993d	0.033349264
83	0x3d39a0b7	0.045319285

fc3.weight f4 [10, 84]
0	0x3bcad829	0.006190319
1	0xbe872878	-0.26398063
2	0x3e12d834	0.14340287
3	0xbed4762f	-0.41496417
4	0x3e09086f	0.13382123
5	0xbe9a8baf	-0.30184695
6	0xbed4f7f2	-0.41595417
7	0xbe61edc1	-0.22063352
8	0xbebc1686	-0.36735934
9	0x3e7f7b67	0.24949418
10	0xbe606329	-0.21912827
11	0x3ce0d33c	0.027444474
12	0xbe61213b	-0.21985333
13	0x3ce18d04	0.027533062
14	0xbcf17d1f	-0.029478608
15	0xbe83e34c	-0.2575935
16	0x3b50a411	0.0031836072
17	0xbde0b27b	-0.109715424
18	0xbefbab18	-0.49153972
19	0xbea0a630	-0.3137679
20	0xbf59afcd	-0.85033876
21	0xbe04ba4e	-0.12961695
22	0xbd3da82d	-0.046302963
23	0x3d738620	0.059454083
24	0xbe892124	-0.26783097
25	0x3d887578	0.066630304
26	0xbed09cfa	-0.40744764
27	0xbda1de24	-0.07903698
28	0x3d9e6a0b	0.0773507
29	0x3c876c30	0.01653108
30	0x3d904e8e	0.07046233
31	0x3e4824b1	0.19545247
32	0x3e3bacc4	0.18327624
33	0xbefd115a	-0.494273
34	0xbe9e84fa	-0.30960828
35	0x3e311b4a	0.17295566
36	0x3d03a5ae	0.032140426
37	0x3e0ac774	0.13552648
38	0xbe844a1b	-0.25837788
39	0x3bcdde90	0.006282635
40	0xbd54c106	-0.051941894
41	0x3e2873c5	0.16450413
42	0x3e6b598c	0.22983378
43	0xbdaf1385	-0.08548645
44	0xbe7d7de1	-0.2475505
45	0xbddb2cea	-0.10701926
46	0xbe408b15	-0.18803056
47	0xbe101b2f	-0.1407287
48	0xbecb6499	-0.39725187
49	0xbe825ae1	-0.2545996
50	0xbe260870	-0.16214156
51	0x3cc8c357	0.024507208
52	0xbe34310d	-0.17596836
53	0xbd87052c	-0.06592783
54	0xbe98b821	-0.2982798
55	0xbe2ae148	-0.166875
56	0x3db0f6fd	0.08640859
57	0xbe065c3c	-0.13121122
58	0x3ca19182	0.019722704
59	0xbcf2216a	-0.029556949
60	0xbd7fa080	-0.062408924
61	0x3d989daa	0.07451947
62	0x3e223dd6	0.15843901
63	0xbdad419b	-0.08459779
64	0xbd5c6b9c	-0.05381356
65	0x3e10944a	0.14119068
66	0xbdee2b3a	-0.116293386
67	0x3dec3f33	0.11535492
68	0xbebeab86	-0.37240237
69	0xbe9c80a5	-0.30566898
70	0x3dae6434	0.08515206
71	0xbece0ee3	-0.40245733
72	0xbdac0ad5	-0.084005035
73	0x3d62366a	0.055227675
74	0xbedafdd9	-0.42771795
75	0xbe8eb37c	-0.2787131
76	0xbdccd1e8	-0.10000974
77	0x3da97910	0.08275044
78	0x3deb4f0e	0.11489688
79	0x3ceb79fa	0.028744686
80	0x3d0ac2dc	0.03387724
81	0x3d9851e7	0.07437497
82	0x3e58dc09	0.21177687
83	0xbeaf7d9d	-0.34275523
84	0x3db0a50f	0.086252324
85	0xbe7cb39b	-0.24677889
86	0xbe0bd5e9	-0.13655819
87	0x3cfc8a9e	0.030827817
88	0xbeb4e465	-0.353305
89	0x3e3f8d16	0.18706164
90	0x3e5b5a1e	0.21421096
91	0xbe8eabf6	-0.2786557
92	0x3dc5354a	0.09629305
93	0x3e9abd0b	0.30222353
94	0xbde3696b	-0.11104091
95	0xbe6f2f0f	-0.23357795
96	0xbd257820	-0.040397763
97	0xbd93098d	-0.07179556
98	0x3d8588fd	0.06520269
99	0xbe96fa7a	-0.29487973
100	0xbe7c4e29	-0.2463919
101	0x3da54a35	0.080707945
102	0xbe6861ad	-0.2269351
103	0x3e0be13c	0.13660139
104	0x3e2ccc8d	0.16874905
105	0x3e1fde34	0.15612108
106	0x3e240c92	0.1602042
107	0xbeedbd4a	-0.4643348
108	0x3dad665f	0.08466791
109	0xbeb0d5d3	-0.34538135
110	0x3dba4a2a	0.09096177
111	0x3e0353c6	0.12824926
112	0xbe97c02c	-0.29638803
113	0xbec874bb	-0.39151558
114	0xbed2182b	-0.41034064
115	0xbea30e55	-0.31846872
116	0x3d76864f	0.06018668
117	0xbeb64f46	-0.35607356
118	0x3d6c685f	0.057716724
119	0x3d77ffc1	0.06054664
120	0x3dedb9fc	0.11607739
121	0xbd1895c6	-0.03725221
122	0x3c50a20c	0.0127339475
123	0xbe2bb2e5	-0.16767462
124	0xbdd4c82c	-0.10389742
125	0xbe418e5d	-0.18901964
126	0x3db8d9e0	0.09025931
127	0x3e30c856	0.17263922
128	0xbe862f62	-0.26208025
129	0x3d96ce6f	0.07363593
130	0x3d13d498	0.036091417
131	0x3dfcd7a7	0.1234582
132	0x3d93d496	0.07218282
133	0x3e0b1478	0.13582027
134	0xbee8a5fe	-0.45439142
135	0x3daef8b4	0.0854353
136	0xbe81e188	-0.2536738
137	0xbf1332f2	-0.5749961
138	0xbe01c76e	-0.12673733
139	0x3d0cd104	0.03437902
140	0xbe6f290a	-0.23355499
141	0xbec03c73	-0.3754612
142	0xbeb1a569	-0.3469651
143	0xbdbc392f	-0.091905944
144	0x3da47dc2	0.08031799
145	0x3da00f35	0.078154005
146	0xbf09fff4	-0.5390618
147	0xbd76a4c5	-0.06021573
148	0xbeffd64b	-0.4996818
149	0x3d242c19	0.040081117
150	0x3e0d272d	0.13784476
151	0x3d2ec2f6	0.042666398
152	0x3db609f6	0.08888619
153	0x3dae5dee	0.085140094
154	0xbe745d76	-0.23863778
155	0x3d9881ae	0.074466094
156	0x3e01e069	0.12683262
157	0x3decdf2c	0.11566004
158	0xbe81b68f	-0.25334594
159	0x3d50c6ed	0.05097096
160	0xbe22bb50	-0.15891767
161	0xbec2eb0a	-0.38069946
162	0xbedffacb	-0.43746027
163	0xbe3736c6	-0.17891988
164	0xbeba9ba6	-0.36446875
165	0xbec2a53f	-0.38016698
166	0xbe128ea6	-0.14312229
167	0xbe9d2f96	-0.30700368
168	0x3e0e4902	0.13895038
169	0x3da0e77b	0.078566514
170	0xbe9f11cb	-0.31068262
171	0xbe6f0bec	-0.23344392
172	0x3d53c083	0.051697265
173	0x3cc7366e	0.024317946
174	0xbe02e921	-0.12784244
175	0xbe2b0481	-0.16700937
176	0xbe8b062a	-0.2715314
177	0xbecde3dd	-0.40212908
178	0xbda60d1b	-0.081079684
179	0xbe617d8b	-0.22020547
180	0x3e634fe1	0.2219844
181	0xbeb2129f	-0.34779832
182	0xbb6a998e	-0.0035797092
183	0xbdddadad	-0.10824142
184	0xbe3bb494	-0.18330604
185	0xbeae3e02	-0.34031683
186	0xbf05dd72	-0.52291024
187	0x3e49ab49	0.19694246
188	0xbeab77d3	-0.33489856
189	0x3e3ffc76	0.1874865
190	0xbee48915	-0.44635835
191	0xbe17bd18	-0.14818227
192	0xbe4f47f8	-0.20242298
193	0x3e4b63b3	0.19862251
194	0x3d0e1878	0.034691304
195	0xbe9beffb	-0.30456528
196	0x3d932111	0.07184041
197	0xbe8ae3bf	-0.2712688
198	0x3cfd39db	0.030911377
199	0x3dbab33a	0.09116216
200	0x3d63ed24	0.055646077
201	0xbe99b1bf	-0.30018422
202	0x3ba76e37	0.005109574
203	0xbe868e2e	-0.2628035
204	0xbe8a3ab8	-0.26997924
205	0x3e5b75b7	0.21431623
206	0xbbf84518	-0.007576596
207	0x3d75cef7	0.06001183
208	0xbe95408f	-0.29150817
209	0x3c8ca970	0.017170638
210	0xbec1ecc3	-0.37875947
211	0xbe4970e4	-0.1967197
212	0xbd8bcc0f	-0.068260305
213	0xbe37a124	-0.17932564
214	0x3dc822b7	0.09772246
215	0x3d6bb566	0.057546042
216	0xbe4a662d	-0.1976554
217	0x3db881a3	0.09009101
218	0xbdf73aa7	-0.12071734
219	0x3e355089	0.17706503
220	0xbc827f03	-0.015929705
221	0xbe815284	-0.25258267
222	0xbd5bf373	-0.05369897
223	0xbdbe7481	-0.09299565
224	0xbe9d3c25	-0.3070995
225	0x3d7dfd26	0.062009
226	0x3d534672	0.051580854
227	0xbd89de6d	-0.067318775
228	0xbe9ac033	-0.3022476
229	0xbe859c05	-0.26095596
230	0xbe322754	-0.17397815
231	0x3a57763f	0.0008219219
232	0xbf279420	-0.65460396
233	0xbe42e75f	-0.19033574
234	0xbd648c57	-0.0557979
235	0xbe56c99a	-0.20975342
236	0x3d8247c3	0.06361344
237	0x3e412141	0.18860342
238	0x3dff7be4	0.12474802
239	0xbbca3850	-0.0061712638
240	0xbe7f5dea	-0.24938169
241	0x3d936636	0.071972296
242	0xbdccb6d0	-0.09995806
243	0x3e0a18a8	0.13485968
244	0x3d89e177	0.06732457
245	0xbdf8922f	-0.12137257
246	0x3e10388d	0.14084072
247	0xbe143196	-0.1447204
248	0xbd9a0b78	-0.07521719
249	0x3d1211e8	0.035661608
250	0x3d30df33	0.04318161
251	0x3daad3c7	0.083411746
252	0x3d81ceb4	0.063382536
253	0x3e6f5ff8	0.23376453
254	0xbeab93aa	-0.33511096
255	0xbe2df68f	-0.16988586

fc3.bias f4 [10]
0	0x3c5183ba	0.012787754
1	0xbddae5c4	-0.106883556
2	0x3d010495	0.03149851
3	0x3c128126	0.008941924
4	0x3b8c8eeb	0.004289498
5	0xbe27ec07	-0.16398631
6	0xbd3b0910	-0.04566294
7	0xbc339f90	-0.010963336
8	0x3e814e44	0.25255024
9	0xbe016978	-0.1263789
