Models/myMNISTANNModel.pt (torch_old, 421875 bytes, 6 tensors)

fc1.weight f4 [120, 784]
000000 28 af b0 bc 10 b6 68 bb 91 61 ef bc a2 90 e2 3c
       -0.021567896 -0.0035508908 -0.029221328 0.027656857
000010 bc 75 76 bc c2 d8 0c bd 8e a4 ef 3c f2 90 3a bc
       -0.0150427185 -0.034386404 0.02925327 -0.011387097
000020 78 b7 a1 bb 5e fa 87 3c 20 be d1 ba ca a8 fa bc
       -0.0049352013 0.016598877 -0.0016002096 -0.030598063
000030 00 17 c3 3b 22 85 93 3c 5c 08 9b 3c f5 26 d0 bc
       0.0059536695 0.018007819 0.018924884 -0.025409201
000040 14 e1 7b 3c 70 0a f5 bb 94 8c 11 3c 52 10 1a bc
       0.015373487 -0.007478051 0.008883614 -0.009403305
000050 c2 ad df 3c 38 cb 12 bc e3 44 cf bc 92 91 1b bc
       0.027304534 -0.008959584 -0.025301402 -0.009495156
000060 30 dd 96 3b c0 c2 fe 3a de d5 e1 bc a1 84 ea bc
       0.0046040043 0.0019436702 -0.0275678 -0.028627696
000070 ee c7 c4 bc 76 4c 9d 3c e0 7b a3 ba 76 ac b0 3c
       -0.024021115 0.019201498 -0.0012472831 0.02156661
000080 9c 6b fd bb 40 e6 49 bc 33 dc 1a bc b4 c8 ab bc
       -0.0077337753 -0.012322962 -0.009451914 -0.020969726
000090 28 f2 0e 3c 03 e9 a1 bb 29 86 87 ba 0f 13 da bc
       0.008724727 -0.0049411072 -0.0010339665 -0.026620416
0000a0 32 5d 1e 3d 49 77 16 3e 7e 11 b4 3d 82 1f 21 bc
       0.038663097 0.14693941 0.08792399 -0.009834172
0000b0 39 ff f9 bb fd 33 c6 3c 74 4c e9 bc 8b b8 e3 bb
       -0.007629302 0.024194712 -0.028478839 -0.0069494895
0000c0 56 43 f0 bc 26 3f 97 bd 83 d2 9d bb d3 70 84 bc
       -0.029328983 -0.073850915 -0.0048163547 -0.01616708
0000d0 3c 5c 75 bc aa 59 1c bc 9c 06 c1 bc 71 af fa bc
       -0.014975604 -0.009542862 -0.023562722 -0.030601235
0000e0 a8 0d e2 bc c3 71 05 3d 97 64 34 3c ab 18 4a 3d
       -0.027594402 0.032579195 0.011010311 0.04933993
0000f0 65 17 53 3c 49 c7 4e 3b 45 0b 55 3c cd 1e 0e bd
       0.012883996 0.0031551889 0.013003175 -0.034697343
000100 6f 4b 4b bd 71 c7 b1 bd 00 8f be bd 62 f2 40 3d
       -0.049632486 -0.086806186 -0.09304619 0.047106154
000110 3d 12 ac bc 92 07 8b bd c8 1e 7e 3d 00 e4 00 3e
       -0.02100479 -0.06788553 0.062041074 0.12586975
000120 04 81 52 3d c5 fe f8 3d 69 99 5f 3d b0 6e d9 3c
       0.05139257 0.121579684 0.054589663 0.026542038
000130 b4 ea 93 bd 50 fe d8 bd e9 9a f5 bd ea 2c 5e bd
       -0.072225004 -0.10595381 -0.119924374 -0.054242052
000140 a2 a1 81 bd 30 d6 89 bc 00 2b 48 bc e6 3c b4 3c
       -0.06329657 -0.016825765 -0.012217283 0.022001695
000150 48 fb c8 3b 72 73 2d bc e7 c2 cf 3c a2 17 37 3d
       0.0061334707 -0.010586606 0.025361491 0.044700272
000160 30 23 b1 3d b4 a2 39 3d 70 8e 0a 3c de 79 50 3d
       0.086492896 0.04532118 0.008456811 0.05089747
000170 7c a8 6d bc 4e 0c 10 be 54 72 9b be 27 b8 87 be
       -0.014505502 -0.14067194 -0.30360663 -0.26507685
000180 fe 9a 49 be 6e d1 37 be 54 2d 73 bd c7 f1 c4 bd
       -0.19688031 -0.17950985 -0.0593694 -0.09616428
000190 80 df 4f bd ff 81 d2 3d af c3 a2 3c fe aa ae bd
       -0.050750256 0.10278701 0.0198687 -0.08528708
0001a0 c2 ee 1d be 0b 1f 41 3d 09 14 af 3c f7 61 38 be
       -0.1542311 0.047148746 0.021371858 -0.1800612
0001b0 6f be f8 bc 1d 6d 8d 3d 45 e3 cf 3c 78 19 4c 3c
       -0.030364243 0.06905577 0.025376925 0.012457244
0001c0 2c 8b 09 bd 03 e0 2a bc 92 1a 6b bd 8e 3c c8 bd
       -0.03357999 -0.010429385 -0.057398386 -0.09777175
0001d0 ff b1 08 be 96 e8 66 bd b4 5b 4a be 70 09 51 be
       -0.1334915 -0.056374155 -0.19761544 -0.20413756
0001e0 74 02 00 be 38 19 aa bd 8d 54 dd bd 60 36 b0 bd
       -0.12500936 -0.08305591 -0.108071424 -0.08604121
0001f0 a2 f0 03 be e0 3d c1 bc cb 0e f5 ba 91 84 54 3d
       -0.12884763 -0.023589075 -0.0018696425 0.051884238
000200 f6 6d ce bd c8 b3 aa bc c0 3c 30 bd 70 f3 18 be
       -0.10079567 -0.02083768 -0.043026686 -0.14936614
000210 1e 9b 32 be 73 19 19 bd d1 78 44 bd 1a 1f 17 3d
       -0.17441985 -0.037377786 -0.047966782 0.036894895
000220 c6 d1 29 3c 89 92 1b 3e e9 8c 1e 3e 10 29 59 bb
       0.010364955 0.15192617 0.1548344 -0.0033136047
000230 51 c0 00 3d d4 17 f1 bb 27 45 0e bd 0b ea 16 be
       0.031433407 -0.007357577 -0.034733918 -0.14737718
000240 ad ac b9 bc 93 27 08 bd d1 ae 8c be 7a cb 3c be
       -0.022665346 -0.033240866 -0.27477124 -0.18436995
000250 f5 89 2e be e7 44 37 bd 23 7c 54 3d c3 72 0d 3e
       -0.17044814 -0.044743445 0.0518762 0.1381331
000260 c7 fc bb 3d 1e 56 c4 3d 4b 57 17 3d 07 cf 4e 3c
       0.09179073 0.09586738 0.036948483 0.012622601
000270 8d 02 0a 3a 95 5c d4 bc df 1c ac bd 99 0a dd bc
       0.00052646623 -0.025923053 -0.08403944 -0.026982592
000280 c5 e2 f9 3c 69 7f ba bd 35 c7 a0 3d 32 71 b4 3d
       0.03050364 -0.09106333 0.07850496 0.08810653
000290 06 b0 6a 3d fa 5e 8a 3d 7e 4f c5 3d 00 7d 4d 3c
       0.057296775 0.067563966 0.096343026 0.012542009
0002a0 88 38 61 3c e0 b6 b9 bd 97 cf c3 3d fb 4e 0b be
       0.013746388 -0.09068084 0.09561079 -0.13604347
0002b0 8a 2f d9 bb 4f 63 35 be 5b 88 b1 be 83 a6 5c be
       -0.0066279816 -0.17713664 -0.34674343 -0.21547894
0002c0 90 33 0b be 35 b7 00 bd 28 27 8e 3d 33 69 36 3d
       -0.13593888 -0.03142472 0.06941062 0.04453392
0002d0 12 7e ca 3c 86 63 2b bd 04 ad af bc bc ae 9a bd
       0.024718318 -0.04184296 -0.021444805 -0.07552859
0002e0 84 25 b7 bb 6b d1 8c 3d 32 b5 02 3e d2 e1 07 3e
       -0.005589189 0.06875881 0.12764433 0.13269737
0002f0 d1 bf 36 3e 76 9a df 3d 56 7e 07 3e 3d 36 04 3e
       0.1784661 0.10918133 0.13231787 0.12911315
000300 84 0d 8f 3e 3e bd a7 3e 23 a9 4e 3e 53 b5 42 3d
       0.2794 0.32761568 0.20181708 0.047536206
000310 14 19 d7 3c 1c fd 6c be fc 52 c0 3d 9d 8b 1e be
       0.026257075 -0.23143429 0.09390828 -0.15482946
000320 99 2c c6 bd 38 a6 2b be c4 f9 52 be 76 6b 34 be
       -0.09676475 -0.16762626 -0.2060309 -0.17619118
000330 01 fc 7b bd b6 28 25 3c 31 a6 4d 3d 73 be 4f 3c
       -0.061519627 0.010080507 0.05020732 0.012679684
000340 88 50 ac bd 92 f6 cc bc 72 da 9d 3d 8c 99 ce 3d
       -0.084137976 -0.025019918 0.07707681 0.100878805
000350 cc ac 01 3e 6a 01 66 3e 10 a9 6f 3e 6c 34 7d 3e
       0.12663573 0.22461477 0.23404336 0.24727029
000360 87 76 90 3e c4 a6 4f 3e 99 d0 32 3e 53 a7 b0 3d
       0.2821543 0.2027846 0.17462386 0.086256646
000370 7d 96 66 3c ab de e7 3d ea 00 35 3e 9c 38 28 3d
       0.014073965 0.113217674 0.1767613 0.041069612
000380 3a 8c 27 bc 44 cf 56 bd 35 c7 6e bd b7 4a 1b be
       -0.010226304 -0.052443758 -0.058295447 -0.1516522
000390 40 02 0f be 46 f7 be bd 8f 87 d8 bd 8d bc 48 bd
       -0.13965702 -0.093245074 -0.10572731 -0.04900794
0003a0 49 48 b8 bd f2 e0 be bc 82 31 45 bd 7b ea 1c bd
       -0.08998162 -0.023300622 -0.048142917 -0.038309556
0003b0 63 ef 1a bd 24 76 1c bd e6 f2 b5 bb f3 8b 13 3e
       -0.037825953 -0.038198605 -0.0055526374 0.14408855
0003c0 e8 e8 4f 3e 1a 38 80 3e 9a 1f 89 3e 38 3c 47 3e
       0.2030369 0.25042802 0.26781923 0.19456565
0003d0 ca 52 36 3e 2f ae 42 3e c3 18 17 3e 12 83 1d 3e
       0.17805019 0.19011758 0.1475554 0.1538203
0003e0 64 a9 d2 3d 1a ad be bb 37 f9 13 3e 95 34 d4 3d
       0.10286215 -0.005818975 0.14450537 0.10361592
0003f0 7a 50 a2 bc 55 fc 01 bb 09 eb 0b be 10 49 2e be
       -0.019813765 -0.001983424 -0.13663878 -0.17020059

fc1.bias f4 [120]
000000 ee 72 f9 3c 2e 0b e1 3b f0 29 0f 3c d0 86 c7 3d
       0.03045031 0.006867788 0.008738026 0.0974251
000010 ed 87 01 3e aa 83 1a 3d 2c 7a 41 bd 52 1d 0a 3e
       0.12649508 0.03772322 -0.047235653 0.13487747
000020 dc 31 c2 3d 1a d5 2e 3e f3 c8 ed 3d 79 ef 08 3e
       0.09482166 0.1707348 0.11610594 0.13372602
000030 6f f3 76 3c 7b 4f 37 bc c3 4e 68 bd 1d 1e 3f 3d
       0.0150726875 -0.011188383 -0.056715738 0.046659578
000040 8c d0 76 bc 6c ae e8 3d d9 a3 ce 3d dc 6f b4 3c
       -0.01506437 0.11361393 0.10089845 0.022025995
000050 e0 27 b3 3c a4 a3 0f 3d 54 13 cf 3d 74 40 21 bc
       0.0218696 0.03506817 0.101111084 -0.009842027
000060 5e f3 b5 3d dd de dd bd 35 06 35 bd ec de 29 3c
       0.08884309 -0.108335234 -0.044195373 0.01036809
000070 da d9 06 be bd 34 d0 3c 31 5c ca 3d 2a 02 0b 3d
       -0.13169041 0.025415773 0.09880865 0.03393761
000080 c9 a2 ae 3d a2 9d 82 bc 10 7d 1e 3d d9 7f c4 3c
       0.085271426 -0.015944306 0.038693488 0.023986744
000090 bd b7 ad 3d ef 40 a8 bd ad d4 58 3c a4 2b 22 3d
       0.08482311 -0.0821551 0.0132343 0.0395924
0000a0 cc 94 08 3e ca b7 4c 3b 18 6e 2d bd c9 ca d3 3d
       0.13338012 0.0031237477 -0.04234132 0.103414126
0000b0 e3 0e fd 3c 7c c4 9e bb 79 67 b5 3d cd 58 08 bd
       0.030890888 -0.0048452 0.088576265 -0.033287812
0000c0 50 37 4c 3d 0a 09 dd 3d f7 5d 68 3d 55 e4 09 3e
       0.049857438 0.1079274 0.056730237 0.13466008
0000d0 97 66 b0 3c a3 db e5 3d 0b 9f df 3c 35 3d 2b 3d
       0.021533294 0.11223533 0.027297517 0.04180642
0000e0 01 93 33 b9 ed ba 19 3e 0c 0a e3 3d 03 39 aa 3d
       -0.00017125533 0.15012713 0.11085901 0.08311655
0000f0 ef 55 11 3e 7a 32 f2 bd 21 dd ee 3d b9 e9 28 3e
       0.14192937 -0.11826034 0.11663271 0.16495408
000100 fd f0 9b bc e8 ef a3 3d c5 aa 9d bd 5d 7c bb bd
       -0.01903581 0.08004743 -0.07698587 -0.0915458
000110 10 7c 89 3d 82 7b 8b 3d 0b d5 1b 3e 5f 5e 16 3d
       0.06713116 0.068106666 0.15217988 0.036711093
000120 d5 93 66 3c a2 7c 1c bd ce 25 2c 3e 85 43 11 3e
       0.014073332 -0.038204797 0.16811296 0.14185913
000130 a9 3e 8a 3c f2 c3 3f 3e ee 3a 2e bc 30 e1 31 bd
       0.016875582 0.18727091 -0.010634167 -0.043427646
000140 55 fd 98 bd 06 3a 3a 3d a6 f8 26 3e f7 d4 10 3e
       -0.07470194 0.04546549 0.1630579 0.1414374
000150 a5 0b d8 3d dd 56 5e 3b 72 a7 b1 bd 51 12 8a bd
       0.10549096 0.0033926286 -0.08674516 -0.06741775
000160 ee 9f e9 3d c7 e6 e2 3d 6e dc 00 be 2a f6 04 3e
       0.11407457 0.110791735 -0.12584087 0.12984529
000170 dc a4 a7 3d 30 4b 70 bd 2a 9e ca 3d 03 74 97 3d
       0.08185741 -0.058665454 0.09893449 0.07395174
000180 82 21 0d 3c 51 19 5a bc 45 b1 3b bd 5f dd 20 3e
       0.008613946 -0.0133117 -0.045823354 0.15709446
000190 06 2e 60 bd c8 27 d8 3d 76 e7 67 bd dd 62 66 3e
       -0.05473139 0.10554463 -0.056617223 0.22498651
0001a0 1f e6 8d 3d ab 4a 91 bd 1b 97 2f bd 31 98 64 3e
       0.06928658 -0.0709432 -0.042868715 0.22323681
0001b0 dd 90 95 bd 3b 83 27 be f8 a9 b1 3d 97 5e 57 bd
       -0.07303021 -0.16358654 0.08674997 -0.052580442
0001c0 1d 9b f4 3d 8d 3c aa bc 46 ae 68 3d 88 b3 48 3d
       0.11943648 -0.020780826 0.056806825 0.04899934
0001d0 e9 81 39 bd 17 fc 60 3c f5 fb 34 3e a5 a3 87 3c
       -0.045289908 0.013731978 0.17674239 0.016557524

fc2.weight f4 [84, 120]
000000 99 22 96 be 88 a6 14 be 67 69 39 be 20 18 41 bd
       -0.2932327 -0.14516652 -0.18106614 -0.047142148
000010 8c 42 fb 3d 88 ab 87 3e 6f eb e1 3d 3d e5 1b 3e
       0.12268552 0.26498055 0.110312335 0.15224166
000020 09 c7 ce 3d 43 c1 cb 3d 14 5b a0 3d 4a 2e 14 be
       0.10096557 0.09948971 0.07829872 -0.14470783
000030 2e e2 bb 3d f9 74 28 3e 2f 50 aa 3d 5c 2a 34 3d
       0.09174 0.16450872 0.08316075 0.04398571
000040 f2 8a d9 3d 74 91 0c 3e ab 03 22 3d 15 b9 6e 3d
       0.10622205 0.13727361 0.03955428 0.058281977
000050 e8 7b 23 be ab 3a b1 bd cc 39 e1 3d b8 48 c5 bc
       -0.15965235 -0.08653768 0.10997352 -0.024082527
000060 df b7 04 be ea 9f 55 3e 75 61 40 be fc d0 80 3d
       -0.12960766 0.20861784 -0.18787177 0.062898606
000070 88 6c b0 bd 3e 41 2c 3c 2b ab 8b 3b e3 d7 e8 bc
       -0.08614451 0.010513602 0.004262348 -0.028423255
000080 dd 48 cf 3c 6a ae 10 bd 1b 48 d6 3c a6 1a 21 bd
       0.025303299 -0.035322584 0.02615743 -0.039332055
000090 ac 7a 9b 3b 39 9e 2c bc 9a 29 1c 3e 95 c8 fe be
       0.0047448482 -0.01053577 0.15250245 -0.49762407
0000a0 c7 d2 ca 3d b0 ce 52 bc c4 a3 b5 3c b6 dd c8 3d
       0.09903484 -0.012866661 0.022172816 0.09807913
0000b0 92 43 0b 3e c1 c0 88 3d 09 38 13 3e 5f 13 45 3e
       0.13599995 0.0667739 0.14376844 0.1924567
0000c0 34 aa 73 3e 0c f6 68 3d b3 a4 6c 3e e2 cf 38 be
       0.23795396 0.056875274 0.23109703 -0.18048051
0000d0 81 03 59 bd 8a ba 1f bd cf 58 1d bc b5 6b 5e be
       -0.052981857 -0.038996257 -0.009603693 -0.21720774
0000e0 f9 19 9b be de 1a 44 3e 8b 25 43 3d 1d 4e a3 3c
       -0.30293253 0.19150874 0.047643226 0.019934708
0000f0 a6 54 d3 bd 6d 2a 61 3c df a6 a0 3d 7d 8b 38 bd
       -0.1031888 0.013743025 0.07844328 -0.0450549
000100 e2 94 8c 3d 02 30 a1 be 08 6a f1 bd 5c 54 ac bd
       0.06864335 -0.3148194 -0.11787802 -0.08414528
000110 56 f6 e4 bd 18 4f 14 3e 24 e1 88 b8 3a 51 2c 3d
       -0.11179797 0.14483297 -6.526921e-05 0.04206965
000120 39 d4 89 be 32 e6 47 3d 1b 82 65 bd 7a 83 7a be
       -0.26919726 0.048803516 -0.05603228 -0.24464217
000130 45 19 f9 3d 6a 0f ee be a2 a1 40 be e7 db 00 3d
       0.12163023 -0.46496135 -0.18811658 0.031459715
000140 d3 18 13 3d 04 bf bb 3d da 8b 35 bd 3d 5c 2a be
       0.035912346 0.09167293 -0.044322826 -0.16636749
000150 a4 96 a0 3d 2c e9 12 bd 94 d5 e5 bc 82 27 7f 3d
       0.078412324 -0.0358669 -0.028055944 0.062293537
000160 64 59 11 3d c3 c5 1f 3e b1 03 d4 be 02 3f 5d bd
       0.03548564 0.15602784 -0.41409066 -0.054015167
000170 71 70 60 3d 8b 89 7b 3e 03 03 1f 3b af 84 1c 3c
       0.054794732 0.24564187 0.002426327 0.009553119
000180 d7 02 28 3e e3 a2 12 3e ba 0b 2e bf 63 4e 2d 3e
       0.16407333 0.14319949 -0.67986643 0.16924433
000190 ab 3c 1b 3e 57 7e de 3b 4d 03 bd 3d d4 e8 06 be
       0.15159862 0.006789963 0.09229145 -0.13174754
0001a0 80 59 1a 3e 4f b6 c3 3c 68 c1 e6 be c9 1f 09 3d
       0.15073204 0.023890642 -0.45069432 0.03347758
0001b0 cb f0 12 bf 33 d4 2c be 9f 11 81 3e 18 35 85 bd
       -0.5739867 -0.16877823 0.25208756 -0.065042675
0001c0 1e 72 4d bd 4a d1 e4 3d aa e5 46 bd f5 76 7d be
       -0.05015766 0.11172731 -0.04855887 -0.2475241
0001d0 15 d3 68 3d e0 40 06 bf de 35 36 3c bc 37 85 bc
       0.05684193 -0.5244274 0.011121241 -0.016261928
0001e0 83 30 c5 3e ad 5b 00 3e 31 6f f0 bd ee 41 ef 3c
       0.38513574 0.12534972 -0.11739958 0.029206242
0001f0 cd ca a2 3d 72 c9 66 3d 7e 50 cc 3d 6a 90 23 3c
       0.079488374 0.056344457 0.0997629 0.009983161
000200 31 73 94 bd 25 aa c9 3c 40 32 29 3e 57 9f 8a bd
       -0.072485335 0.024617264 0.16523075 -0.06768673
000210 21 1c 45 3d 72 b2 02 bc b8 f8 52 3d 25 fa 62 be
       0.04812253 -0.007977115 0.051506728 -0.22165735
000220 33 d1 27 3e c4 71 bc bd 51 c0 d9 3d 5d 24 74 bd
       0.16388397 -0.092013866 0.106323846 -0.05960499
000230 2d 82 91 bd 54 1c 71 bd 49 a3 7d 3e bc 72 4c be
       -0.07104907 -0.058864906 0.2476932 -0.19965643
000240 57 07 2e be 6a 09 45 3e 4c 7f 36 3d ee e1 f7 bd
       -0.16994987 0.19241872 0.044554994 -0.121036395
000250 66 1a 7a 3e 12 ac 01 3e 6d 79 48 bd c8 20 b5 bd
       0.24424133 0.12663296 -0.048943926 -0.08844143
000260 29 f4 81 bd 9f 83 4c bd 5b dd f4 3d 2f 8a 97 3e
       -0.06345398 -0.04993021 0.11956283 0.29597613
000270 73 c4 42 be c3 ca 54 bd bd 26 c4 bd 0e eb f2 3d
       -0.19020252 -0.05195118 -0.09577701 0.118612394
000280 bc 1a 4b bc 30 0e 81 3d 97 5f 8e 3d 4a d0 9f 3d
       -0.012396511 0.06301534 0.06951826 0.078034
000290 c1 36 db 3c 02 d8 76 3d 19 8e a4 3d a7 2e 72 be
       0.026759507 0.060264595 0.080349155 -0.23650609
0002a0 00 f3 b0 bc 96 3f b3 bc 26 48 be bd 53 37 d7 bb
       -0.021600246 -0.021880906 -0.09291105 -0.0065678745
0002b0 56 97 27 3d 13 f9 62 3d 27 58 ac 3d 52 33 5e be
       0.04091581 0.055413317 0.08415251 -0.21699265
0002c0 c1 58 29 3e b7 70 3e 3d 25 3d ce 3c f9 40 10 3e
       0.16537763 0.046494212 0.02517564 0.14087285
0002d0 db e4 c4 bd 7f 63 72 bd 80 01 1f be 4e 5b 79 be
       -0.09613963 -0.059176918 -0.15527916 -0.24351236
0002e0 15 51 ca 3d 88 33 39 3e 5b 4b 50 3e 28 4b d1 3d
       0.098787464 0.18086064 0.20341246 0.10219413
0002f0 78 85 31 3e 81 7e 8a bd 31 d7 1d bd b8 5c d0 bd
       0.1733607 -0.0676241 -0.0385353 -0.10173935
000300 2a fa b7 3e e8 5e 4f 3e bd 5b 31 3d 57 58 ff bc
       0.35933048 0.20251048 0.04330038 -0.031170053
000310 8b f5 44 3d 72 f4 e8 3e 20 9b 73 3e bc cd 83 bd
       0.04808573 0.45498997 0.23789644 -0.06435725
000320 3a c3 bd 3d 22 2e 55 3d 9c 10 1e 3e 48 bd c7 bd
       0.09265752 0.05204595 0.15436023 -0.097528994
000330 8a b4 07 be af 97 f8 bd 65 c2 01 3e da 9e 31 bb
       -0.13252464 -0.12138306 0.12671812 -0.002710274
000340 db 90 40 3d 7e 7a 13 3d b8 c7 2b 3e 46 6f 2e 3e
       0.047013145 0.03600549 0.16775405 0.17034635
000350 07 17 87 bb 9d 8f 4e bc e2 79 07 be 5f 62 1e bd
       -0.004122618 -0.012607482 -0.13230088 -0.038668033
000360 85 a1 a7 bd 0b 87 21 3c 43 06 01 3f ca 11 ea 3d
       -0.08185104 0.009858857 0.5040018 0.11429174
000370 17 74 91 bd 57 e5 f7 3d 00 61 56 be 3a 4c 1a 3e
       -0.071022205 0.1210429 -0.2093544 0.1506814
000380 f3 17 48 bb 8b 6f 92 bc 18 bd 07 3e b2 92 0f 3e
       -0.0030531853 -0.017875453 0.13255727 0.14020804
000390 3a 5a 10 3e 3e d6 c4 3d 12 1e 5e 3e 60 25 82 3c
       0.14096919 0.09611176 0.21691158 0.015886962
0003a0 9d c0 c1 bc fb 53 57 3e e7 d8 81 3d 78 77 3a bd
       -0.023651415 0.2102813 0.06340199 -0.04552409
0003b0 a8 60 7a 3d 54 2a 1d bd 4c 7e 29 3e c1 12 28 bd
       0.061127335 -0.038370445 0.16552085 -0.04103351
0003c0 fb 18 fc 3e f2 e0 e0 3d 8f 52 f8 3d 47 eb af 3d
       0.4923781 0.10980405 0.12125122 0.085897975
0003d0 23 3a b8 3d a0 9a 6a be 41 18 a4 bd 8a 7e 01 3e
       0.08995464 -0.22910547 -0.080124386 0.12645927
0003e0 41 94 56 bd b9 53 74 3e 7c a4 32 be 64 57 8a 3d
       -0.05238748 0.23860063 -0.17445558 0.0675495
0003f0 65 f7 22 bd d2 46 e2 3d e1 7b fb 3d fb 81 9a 3d
       -0.039786715 0.11048664 0.122794874 0.07544323

fc2.bias f4 [84]
000000 66 89 6d bd 2d 24 88 bd 11 08 40 3e dc b1 b3 3d
       -0.05799236 -0.06647525 0.18753077 0.08774158
000010 00 37 21 3d b2 a6 bf 3d 67 f4 f7 bd f3 66 39 3e
       0.039359093 0.093579665 -0.12107163 0.18105678
000020 78 74 c0 3c 18 72 38 3c 35 c1 e2 3c e3 d8 89 3e
       0.023493037 0.011257671 0.027680019 0.26923284
000030 35 82 e1 bd 5c 29 13 3e f8 e7 da 3d bc 95 20 3e
       -0.11011163 0.14371246 0.10688776 0.15682119
000040 4e 36 0a 3e 43 bb 8f 3d 0e 5c 2b bd 66 e3 9d 3c
       0.13497278 0.07018139 -0.041835837 0.019273471
000050 ec 2b df 3d 32 a6 4b 3e 0d 87 cd 3d dc 27 ad 3d
       0.10897049 0.19887617 0.100355245 0.08454868
000060 49 95 9e 3d c6 3d 9f 3b 30 b9 ef 3d da 0b ad 3d
       0.07743318 0.004859659 0.117052436 0.08449526
000070 ad e9 f0 3d 05 95 03 3e 07 88 f5 3c 43 aa 8d bc
       0.1176332 0.12849815 0.02997209 -0.017293101
000080 10 f0 9c 3d 86 71 ca bd f4 bd 60 3d 05 b6 58 bd
       0.07662976 -0.09884934 0.054868653 -0.052907962
000090 ee 41 ba 3d 80 43 46 bd 13 04 a3 3d 35 ca a0 bc
       0.09094606 -0.048404217 0.079597615 -0.01962767
0000a0 cd b2 58 3d b4 93 2e 3e ae 69 56 bc a9 e9 97 bd
       0.052904893 0.17048532 -0.013086719 -0.07417614
0000b0 5b 02 46 3d 3a cd a8 bd df 93 4b bd 37 d3 f9 3c
       0.04834209 -0.08242269 -0.049701568 0.030496223
0000c0 bc aa e1 3d ed 19 03 3c c6 c3 4b 3d 40 04 06 3e
       0.11018893 0.008001787 0.04974725 0.13087559
0000d0 4a 49 90 3d 34 ba cb 3d dd d7 ce 3d b3 b5 ba 3d
       0.07045229 0.09947625 0.100997664 0.091166876
0000e0 ad 49 0a 3d e8 71 22 3e 18 e8 a3 bd 32 56 da 3d
       0.03376167 0.15863764 -0.08003253 0.10660972
0000f0 6b 56 b2 3d 92 e5 d0 3d 53 5c 19 bd 30 11 d2 3d
       0.08707889 0.10200037 -0.037441563 0.102571845
000100 25 77 cc 3d f6 14 d8 3d 1b 0f 01 3e d3 91 5d bd
       0.099836625 0.10550873 0.12603419 -0.054094147
000110 30 ae 37 3e 0e a3 a6 3d 5a 95 fd 3d e0 20 65 3d
       0.17937541 0.08136569 0.12382002 0.055939555
000120 2e 15 2a 3e f6 10 98 bd 28 d6 9d 3d f8 88 b9 bb
       0.16609642 -0.0742511 0.07706863 -0.00566208
000130 39 55 96 bd 42 63 fd 3d 19 3e a9 3d ff 34 a4 bc
       -0.07340474 0.123724476 0.08263797 -0.020044802
000140 b3 d1 3c 3d 17 c7 01 bd cd 68 c3 3d dd 8a 55 bd
       0.046098422 -0.031684007 0.095414735 -0.052134383

fc3.weight f4 [10, 84]
000000 a5 91 b3 3e 2a 93 b6 bc 3e d3 60 be 25 d9 6f be
       0.35072055 -0.02228697 -0.21955582 -0.23422678
000010 93 11 0b 3e 16 63 97 bd 1e 4d d7 bd 5f 73 96 be
       0.13580923 -0.07391946 -0.10512756 -0.29384896
000020 a5 2a 50 3e 55 a5 96 bd d1 1d 94 be 9c f9 a5 be
       0.20328768 -0.07355753 -0.28928998 -0.32417
000030 61 0f a1 3d 6a 52 29 3e a8 02 70 bd 25 a3 0c be
       0.078642614 0.16535345 -0.058596283 -0.1373411
000040 c3 f6 86 be 02 4f 6b 3c 9e 12 7d 3b e8 e5 a9 3e
       -0.2636014 0.014362099 0.0038615833 0.33183217
000050 63 e3 8d be 66 6f 9f bc d2 2b 1b bc 7e 1a 25 3d
       -0.27712545 -0.019462299 -0.009470897 0.040308468
000060 ab 1c 0e 3e eb 18 ad bd ba 70 2d bd 44 06 9f be
       0.13878123 -0.08452018 -0.042343833 -0.31059468
000070 f4 ca f7 bd 53 7a 4b be e7 cb 9b be f8 2a 0f bd
       -0.12099257 -0.19870882 -0.30429003 -0.034953088
000080 9b e9 45 be 7c d9 9c bd 85 d7 41 bb 26 98 91 bc
       -0.19327395 -0.07658669 -0.0029577923 -0.017772745
000090 87 27 bb 3d 79 72 d6 3d 02 5a a2 3d c1 b6 7e 3d
       0.091383986 0.10471053 0.07927324 0.062186006
0000a0 36 0c 89 be a0 69 10 bd 03 eb fe 3d 19 01 c7 3d
       -0.2676713 -0.03525698 0.12447169 0.09717006
0000b0 d1 b1 13 3e c5 a3 69 3e c5 bb 84 3d 71 5f 83 be
       0.144233 0.2281638 0.06481127 -0.25658754
0000c0 86 d1 b6 3d 0a 1f 51 be 9c 8f 34 be 1b f6 92 be
       0.08926682 -0.20421997 -0.17632908 -0.2870339
0000d0 27 e2 6b bd 70 51 f8 bb 80 5c e4 3d 4b 5f d5 be
       -0.057588723 -0.0075780675 0.111504555 -0.41674265
0000e0 2c 1d 00 3e 2f d2 f7 bc 20 76 2c 3e 6e 47 d8 bc
       0.12511128 -0.03025159 0.16841936 -0.026401248
0000f0 8f 6f 0c 3e 84 a2 0b 3e ef 96 77 be 40 ea 6b be
       0.13714431 0.13636214 -0.2417867 -0.23038578
000100 c6 26 b9 bd 59 23 e0 3d 6a d5 19 be f9 e1 0c be
       -0.090405986 0.10944242 -0.15022817 -0.13758077
000110 6f 7a 0d 3e 61 2b 40 bd aa fe e2 3c 8c b9 48 bd
       0.13816236 -0.04691637 0.027709324 -0.049005076
000120 f5 16 ee 3d 39 7e f3 3c 1f 71 6d 3e b4 8b 43 be
       0.116254725 0.029723274 0.23187684 -0.19096261
000130 60 f8 48 3d 0b bf 10 3d 2b d4 ee 3d a8 ec 3d 3e
       0.049064994 0.035338443 0.116615616 0.18547308
000140 50 c1 b7 be 8c ca 99 be 53 51 86 bc 47 3a 24 be
       -0.35889673 -0.30037344 -0.0163962 -0.16037856
000150 4e 40 99 3e 97 59 5d be a2 22 1c 3e ad 7a 7d 3e
       0.29931873 -0.21616207 0.15247586 0.24753828
000160 49 4e bd be 1d bc 68 3d 86 37 36 3e 96 b3 32 3e
       -0.3697379 0.056820024 0.17794618 0.17451319
000170 80 30 ba bc 32 75 56 3e 3d 63 62 3d 0f ca a1 3c
       -0.022728205 0.20943144 0.055270422 0.01974967
000180 76 33 c5 bd 6f ce 61 be ee c1 70 bd d8 09 0a 3e
       -0.09628956 -0.22051404 -0.058778696 0.13480318
000190 f0 e1 27 3e fd 5d 9a be d9 75 00 3e e8 a3 3f be
       0.16394782 -0.30149832 0.12544955 -0.18714869
0001a0 c5 4e 14 bd 95 12 c0 be 8e 2a 1a be da ec 28 be
       -0.036207933 -0.37514177 -0.15055296 -0.16496602
0001b0 43 1e 38 3e 65 9c 27 bd c8 21 b5 be 3c 8b 64 be
       0.17980294 -0.040920634 -0.35377336 -0.22318739
0001c0 28 47 a4 3d 5c c7 8a 3e 29 26 2d 3e ea 19 9a be
       0.080213845 0.27105224 0.16909088 -0.30097896
0001d0 98 f6 f5 3c 87 32 dd 3c e6 cf 00 bd ae 2c cd 3c
       0.030024812 0.027001632 -0.031448267 0.025045719
0001e0 51 b8 e2 bd 08 37 9d 3d ef a0 c4 bd 94 ae 16 3e
       -0.11070312 0.07676512 -0.09601008 0.14715034
0001f0 af 65 15 be 89 ef 3b 3e 69 50 0f 3c 35 96 6b 3d
       -0.1458957 0.18353094 0.008747199 0.057516295
000200 4c 5c 3d be 1c c4 02 be 2e de b3 3c 65 95 e2 3d
       -0.1849224 -0.12770122 0.02195653 0.11063651
000210 86 41 a5 be 7c 1a ae 3d 1b 66 5e be ec cf 43 be
       -0.32276553 0.08501145 -0.21718638 -0.19122285
000220 11 aa 67 3e ab 35 02 bf 20 5e 35 3d 55 b1 65 3d
       0.22623469 -0.5086314 0.044279218 0.05607732
000230 23 3b cc 3d 31 34 95 bd d3 6c 70 be 16 3d 51 be
       0.09972217 -0.07285345 -0.23479013 -0.20433459
000240 c9 55 6e be 99 b8 9b be 5c 6a d2 3d dd 26 1d 3e
       -0.23274912 -0.30414274 0.10274193 0.15346856
000250 5a 80 9e be 29 dd 70 3e b3 ff eb bd 40 5b 39 3b
       -0.309573 0.23521866 -0.1152338 0.002828315
000260 56 ed 45 be cc 81 22 be 83 ba 96 3e dd bd 30 be
       -0.19328818 -0.15869826 0.29439172 -0.17259927
000270 9f 74 da 3e 62 fe d6 bd 0e 71 1c 3e f2 8f 61 be
       0.426671 -0.104977384 0.15277502 -0.22027567
000280 b9 28 f5 3c 6e 01 b2 bd 3c 32 c5 bd 5d 0b 41 be
       0.029926645 -0.08691679 -0.09628722 -0.18851991
000290 af 7f 29 bd 54 a8 78 bd 39 0f cb 3c 46 0a 45 3c
       -0.041381534 -0.060707405 0.024787532 0.012026375
0002a0 fa 66 7d be 3c 31 50 3c 22 d1 b0 be 1e ca 44 be
       -0.24746314 0.012707051 -0.34534556 -0.19217727
0002b0 99 a0 b7 bd 9d e3 b2 3e 32 29 a8 be 2c 7f 27 3e
       -0.089661784 0.3493928 -0.3284393 0.16357106
0002c0 a9 f8 fa bd ac d0 26 be 64 f5 00 3e 95 91 b8 bd
       -0.122544594 -0.1629054 0.12593609 -0.090121426
0002d0 df 02 e7 bc 86 0c 17 be 0d f5 fb 3a db 7e a5 be
       -0.028199611 -0.14750871 0.0019222811 -0.32323346
0002e0 82 3c 0a be a9 f2 a7 3d 04 dc 53 3d 44 68 42 bd
       -0.13499644 0.082005806 0.051723495 -0.047462717
0002f0 e3 e6 00 3d c4 2a 2c 3c d9 5a 2c be 46 58 40 3e
       0.03147019 0.010508243 -0.1683153 0.18783674
000300 2e 8a 0f 3e cc c3 2c 3e 88 00 40 3e c1 4a b3 bc
       0.14017555 0.16871566 0.18750203 -0.021886231
000310 fa 31 a5 3d 86 15 10 3e f4 4c 01 3e 3a 55 6f bd
       0.08066173 0.1407071 0.12627012 -0.058430888
000320 8a 9c 73 3e 26 6d e1 3c 9e 14 37 3e 06 3c 12 3e
       0.23790184 0.027517866 0.17878959 0.1428071
000330 c8 90 6d be de 88 26 3e 98 e7 b1 3d 82 23 fe 3d
       -0.23199761 0.16263148 0.08686751 0.12409116
000340 3d 2d c6 bd 37 43 3c be 9d 10 3a 3e b7 bf 6c 3d
       -0.09676597 -0.18385015 0.181704 0.05780002
000350 c4 1e 8f 3d 66 29 cd 3d 7c a9 14 bd 7d 70 88 be
       0.0698829 0.10017662 -0.036294445 -0.26648322
000360 c7 df f3 3c 26 ae 1d 3e a5 a8 2c be e7 fd a0 be
       0.029769791 0.15398464 -0.16861208 -0.31443712
000370 de 7c 26 3e 71 ee 08 bd a3 bd 27 be 58 fe be be
       0.1625857 -0.03343052 -0.16380934 -0.37303424
000380 ae ee 70 3d a3 fa c6 be 93 5b f8 3d a2 14 9a be
       0.058821373 -0.38863096 0.121268414 -0.30093867
000390 a3 13 0f 3e 71 5a 2a be b2 70 b2 be cd ea 13 bc
       0.13972335 -0.16636063 -0.34851605 -0.009028149
0003a0 43 9d 16 be 78 60 50 be 30 5a 91 bd e5 f8 0d 3e
       -0.14708428 -0.203493 -0.0709728 0.13864477
0003b0 79 db 1c be f5 c0 96 bd a9 d8 22 be df 5f db 3d
       -0.15318097 -0.073610224 -0.15902962 0.10711645
0003c0 9d 57 4c 3e 91 53 5c bd 0c ec a0 bc a7 e7 86 3e
       0.19955297 -0.053790633 -0.019643806 0.26348612
0003d0 8f e6 a5 bc ef b5 53 3e a7 07 c6 bd 96 ad d6 bd
       -0.02025154 0.20674871 -0.09669428 -0.10482328
0003e0 47 bc 34 be a2 89 f7 3d 5a 0f 1a be 1d 5e f3 3d
       -0.17649947 0.12086798 -0.15044919 0.11883185
0003f0 f5 4b 39 be 47 a1 67 3e 58 7c 1c bd c7 7e c1 3d
       -0.18095382 0.22620116 -0.03820452 0.09448009

fc3.bias f4 [10]
000000 6f 16 29 be 38 0f 24 bd 19 20 f7 3a e6 39 18 be
       -0.16512464 -0.040053576 0.001885417 -0.14865837
000010 b8 c3 1b 3d 5e 2f 6f 3d a9 7b e7 ba 58 fe 08 3d
       0.03802845 0.058394782 -0.0017660755 0.033445686
000020 d6 f1 02 3e 5a 25 d8 bb
       0.12787566 -0.0065962495
